#loc = loc("/workspace/caption-remover-main/src/stages/inpaint/../../../.torch_compile_cache/iw/ciwr4czt7ds4otadumissrxlksapmk3ca3got5coyiiidsvkibat.py":20:0)
module {
  tt.func public @triton__0d1d2de(%arg0: !tt.ptr<f16, 1> {tt.divisibility = 16 : i32} loc("/workspace/caption-remover-main/src/stages/inpaint/../../../.torch_compile_cache/iw/ciwr4czt7ds4otadumissrxlksapmk3ca3got5coyiiidsvkibat.py":20:0), %arg1: !tt.ptr<f16, 1> {tt.divisibility = 16 : i32} loc("/workspace/caption-remover-main/src/stages/inpaint/../../../.torch_compile_cache/iw/ciwr4czt7ds4otadumissrxlksapmk3ca3got5coyiiidsvkibat.py":20:0), %arg2: i32 {tt.divisibility = 16 : i32, tt.max_divisibility = 16 : i32} loc("/workspace/caption-remover-main/src/stages/inpaint/../../../.torch_compile_cache/iw/ciwr4czt7ds4otadumissrxlksapmk3ca3got5coyiiidsvkibat.py":20:0)) attributes {noinline = false} {
    %cst = arith.constant dense<1.250000e-01> : tensor<1024xf32> loc(#loc1)
    %c1024_i32 = arith.constant 1024 : i32 loc(#loc2)
    %0 = tt.get_program_id x : i32 loc(#loc3)
    %1 = arith.muli %0, %c1024_i32 : i32 loc(#loc2)
    %2 = tt.make_range {end = 1024 : i32, start = 0 : i32} : tensor<1024xi32> loc(#loc4)
    %3 = tt.splat %1 : (i32) -> tensor<1024xi32> loc(#loc5)
    %4 = arith.addi %3, %2 : tensor<1024xi32> loc(#loc5)
    %5 = tt.splat %arg2 : (i32) -> tensor<1024xi32> loc(#loc6)
    %6 = arith.cmpi slt, %4, %5 : tensor<1024xi32> loc(#loc6)
    %7 = tt.splat %arg0 : (!tt.ptr<f16, 1>) -> tensor<1024x!tt.ptr<f16, 1>> loc(#loc7)
    %8 = tt.addptr %7, %4 : tensor<1024x!tt.ptr<f16, 1>>, tensor<1024xi32> loc(#loc7)
    %9 = tt.load %8, %6 {cache = 1 : i32, evict = 1 : i32, isVolatile = false} : tensor<1024xf16> loc(#loc8)
    %10 = arith.extf %9 : tensor<1024xf16> to tensor<1024xf32> loc(#loc9)
    %11 = tt.splat %arg1 : (!tt.ptr<f16, 1>) -> tensor<1024x!tt.ptr<f16, 1>> loc(#loc10)
    %12 = tt.addptr %11, %4 : tensor<1024x!tt.ptr<f16, 1>>, tensor<1024xi32> loc(#loc10)
    %13 = tt.load %12, %6 {cache = 1 : i32, evict = 1 : i32, isVolatile = false} : tensor<1024xf16> loc(#loc11)
    %14 = arith.extf %13 : tensor<1024xf16> to tensor<1024xf32> loc(#loc12)
    %15 = arith.mulf %14, %cst : tensor<1024xf32> loc(#loc1)
    %16 = arith.addf %10, %15 : tensor<1024xf32> loc(#loc13)
    %17 = arith.truncf %16 : tensor<1024xf32> to tensor<1024xf16> loc(#loc14)
    tt.store %8, %17, %6 {cache = 1 : i32, evict = 1 : i32} : tensor<1024xf16> loc(#loc14)
    tt.return loc(#loc15)
  } loc(#loc)
} loc(#loc)
#loc1 = loc("/workspace/caption-remover-main/src/stages/inpaint/../../../.torch_compile_cache/iw/ciwr4czt7ds4otadumissrxlksapmk3ca3got5coyiiidsvkibat.py":28:18)
#loc2 = loc("/workspace/caption-remover-main/src/stages/inpaint/../../../.torch_compile_cache/iw/ciwr4czt7ds4otadumissrxlksapmk3ca3got5coyiiidsvkibat.py":21:33)
#loc3 = loc("/workspace/caption-remover-main/src/stages/inpaint/../../../.torch_compile_cache/iw/ciwr4czt7ds4otadumissrxlksapmk3ca3got5coyiiidsvkibat.py":21:28)
#loc4 = loc("/workspace/caption-remover-main/src/stages/inpaint/../../../.torch_compile_cache/iw/ciwr4czt7ds4otadumissrxlksapmk3ca3got5coyiiidsvkibat.py":22:36)
#loc5 = loc("/workspace/caption-remover-main/src/stages/inpaint/../../../.torch_compile_cache/iw/ciwr4czt7ds4otadumissrxlksapmk3ca3got5coyiiidsvkibat.py":22:23)
#loc6 = loc("/workspace/caption-remover-main/src/stages/inpaint/../../../.torch_compile_cache/iw/ciwr4czt7ds4otadumissrxlksapmk3ca3got5coyiiidsvkibat.py":23:21)
#loc7 = loc("/workspace/caption-remover-main/src/stages/inpaint/../../../.torch_compile_cache/iw/ciwr4czt7ds4otadumissrxlksapmk3ca3got5coyiiidsvkibat.py":25:34)
#loc8 = loc("/workspace/caption-remover-main/src/stages/inpaint/../../../.torch_compile_cache/iw/ciwr4czt7ds4otadumissrxlksapmk3ca3got5coyiiidsvkibat.py":25:39)
#loc9 = loc("/workspace/caption-remover-main/src/stages/inpaint/../../../.torch_compile_cache/iw/ciwr4czt7ds4otadumissrxlksapmk3ca3got5coyiiidsvkibat.py":25:49)
#loc10 = loc("/workspace/caption-remover-main/src/stages/inpaint/../../../.torch_compile_cache/iw/ciwr4czt7ds4otadumissrxlksapmk3ca3got5coyiiidsvkibat.py":26:30)
#loc11 = loc("/workspace/caption-remover-main/src/stages/inpaint/../../../.torch_compile_cache/iw/ciwr4czt7ds4otadumissrxlksapmk3ca3got5coyiiidsvkibat.py":26:35)
#loc12 = loc("/workspace/caption-remover-main/src/stages/inpaint/../../../.torch_compile_cache/iw/ciwr4czt7ds4otadumissrxlksapmk3ca3got5coyiiidsvkibat.py":26:45)
#loc13 = loc("/workspace/caption-remover-main/src/stages/inpaint/../../../.torch_compile_cache/iw/ciwr4czt7ds4otadumissrxlksapmk3ca3got5coyiiidsvkibat.py":29:18)
#loc14 = loc("/workspace/caption-remover-main/src/stages/inpaint/../../../.torch_compile_cache/iw/ciwr4czt7ds4otadumissrxlksapmk3ca3got5coyiiidsvkibat.py":30:39)
#loc15 = loc("/workspace/caption-remover-main/src/stages/inpaint/../../../.torch_compile_cache/iw/ciwr4czt7ds4otadumissrxlksapmk3ca3got5coyiiidsvkibat.py":30:4)
