#loc = loc("/workspace/caption-remover-main/src/stages/inpaint/../../../.torch_compile_cache/fg/cfgy6yonmdor5owk54pcezsvoecvoblg4um6ffgoca52nvdxrr43.py":20:0)
module {
  tt.func public @triton__0d1d2de(%arg0: !tt.ptr<f32, 1> {tt.divisibility = 16 : i32} loc("/workspace/caption-remover-main/src/stages/inpaint/../../../.torch_compile_cache/fg/cfgy6yonmdor5owk54pcezsvoecvoblg4um6ffgoca52nvdxrr43.py":20:0), %arg1: !tt.ptr<f32, 1> {tt.divisibility = 16 : i32} loc("/workspace/caption-remover-main/src/stages/inpaint/../../../.torch_compile_cache/fg/cfgy6yonmdor5owk54pcezsvoecvoblg4um6ffgoca52nvdxrr43.py":20:0), %arg2: i32 {tt.divisibility = 16 : i32, tt.max_divisibility = 16 : i32} loc("/workspace/caption-remover-main/src/stages/inpaint/../../../.torch_compile_cache/fg/cfgy6yonmdor5owk54pcezsvoecvoblg4um6ffgoca52nvdxrr43.py":20:0)) attributes {noinline = false} {
    %cst = arith.constant dense<-160> : tensor<256xi32> loc(#loc1)
    %cst_0 = arith.constant dense<0.000000e+00> : tensor<256xf32> loc(#loc2)
    %cst_1 = arith.constant dense<160> : tensor<256xi32> loc(#loc3)
    %cst_2 = arith.constant dense<160> : tensor<256xi64> loc(#loc4)
    %cst_3 = arith.constant dense<320> : tensor<256xi32> loc(#loc5)
    %c256_i32 = arith.constant 256 : i32 loc(#loc6)
    %0 = tt.get_program_id x : i32 loc(#loc7)
    %1 = arith.muli %0, %c256_i32 : i32 loc(#loc6)
    %2 = tt.make_range {end = 256 : i32, start = 0 : i32} : tensor<256xi32> loc(#loc8)
    %3 = tt.splat %1 : (i32) -> tensor<256xi32> loc(#loc9)
    %4 = arith.addi %3, %2 : tensor<256xi32> loc(#loc9)
    %5 = arith.cmpi slt, %4, %cst_3 : tensor<256xi32> loc(#loc5)
    %6 = arith.extsi %4 : tensor<256xi32> to tensor<256xi64> loc(#loc4)
    %7 = arith.cmpi slt, %6, %cst_2 : tensor<256xi64> loc(#loc4)
    %8 = arith.addi %4, %cst_1 : tensor<256xi32> loc(#loc3)
    %9 = tt.splat %arg0 : (!tt.ptr<f32, 1>) -> tensor<256x!tt.ptr<f32, 1>> loc(#loc10)
    %10 = tt.addptr %9, %8 : tensor<256x!tt.ptr<f32, 1>>, tensor<256xi32> loc(#loc10)
    %11 = arith.andi %7, %5 : tensor<256xi1> loc(#loc11)
    %12 = tt.load %10, %11, %cst_0 {cache = 1 : i32, evict = 1 : i32, isVolatile = false} : tensor<256xf32> loc(#loc2)
    %13 = arith.cmpi sge, %6, %cst_2 : tensor<256xi64> loc(#loc12)
    %14 = arith.addi %4, %cst : tensor<256xi32> loc(#loc1)
    %15 = tt.addptr %9, %14 : tensor<256x!tt.ptr<f32, 1>>, tensor<256xi32> loc(#loc13)
    %16 = arith.andi %13, %5 : tensor<256xi1> loc(#loc14)
    %17 = tt.load %15, %16, %cst_0 {cache = 1 : i32, evict = 1 : i32, isVolatile = false} : tensor<256xf32> loc(#loc15)
    %18 = arith.select %13, %17, %cst_0 : tensor<256xi1>, tensor<256xf32> loc(#loc16)
    %19 = arith.select %7, %12, %18 : tensor<256xi1>, tensor<256xf32> loc(#loc22)
    %20 = tt.splat %arg1 : (!tt.ptr<f32, 1>) -> tensor<256x!tt.ptr<f32, 1>> loc(#loc19)
    %21 = tt.addptr %20, %4 : tensor<256x!tt.ptr<f32, 1>>, tensor<256xi32> loc(#loc19)
    tt.store %21, %19, %5 {cache = 1 : i32, evict = 1 : i32} : tensor<256xf32> loc(#loc20)
    tt.return loc(#loc21)
  } loc(#loc)
} loc(#loc)
#loc1 = loc("/workspace/caption-remover-main/src/stages/inpaint/../../../.torch_compile_cache/fg/cfgy6yonmdor5owk54pcezsvoecvoblg4um6ffgoca52nvdxrr43.py":37:40)
#loc2 = loc("/workspace/caption-remover-main/src/stages/inpaint/../../../.torch_compile_cache/fg/cfgy6yonmdor5owk54pcezsvoecvoblg4um6ffgoca52nvdxrr43.py":31:41)
#loc3 = loc("/workspace/caption-remover-main/src/stages/inpaint/../../../.torch_compile_cache/fg/cfgy6yonmdor5owk54pcezsvoecvoblg4um6ffgoca52nvdxrr43.py":31:36)
#loc4 = loc("/workspace/caption-remover-main/src/stages/inpaint/../../../.torch_compile_cache/fg/cfgy6yonmdor5owk54pcezsvoecvoblg4um6ffgoca52nvdxrr43.py":30:18)
#loc5 = loc("/workspace/caption-remover-main/src/stages/inpaint/../../../.torch_compile_cache/fg/cfgy6yonmdor5owk54pcezsvoecvoblg4um6ffgoca52nvdxrr43.py":24:21)
#loc6 = loc("/workspace/caption-remover-main/src/stages/inpaint/../../../.torch_compile_cache/fg/cfgy6yonmdor5owk54pcezsvoecvoblg4um6ffgoca52nvdxrr43.py":22:33)
#loc7 = loc("/workspace/caption-remover-main/src/stages/inpaint/../../../.torch_compile_cache/fg/cfgy6yonmdor5owk54pcezsvoecvoblg4um6ffgoca52nvdxrr43.py":22:28)
#loc8 = loc("/workspace/caption-remover-main/src/stages/inpaint/../../../.torch_compile_cache/fg/cfgy6yonmdor5owk54pcezsvoecvoblg4um6ffgoca52nvdxrr43.py":23:36)
#loc9 = loc("/workspace/caption-remover-main/src/stages/inpaint/../../../.torch_compile_cache/fg/cfgy6yonmdor5owk54pcezsvoecvoblg4um6ffgoca52nvdxrr43.py":23:23)
#loc10 = loc("/workspace/caption-remover-main/src/stages/inpaint/../../../.torch_compile_cache/fg/cfgy6yonmdor5owk54pcezsvoecvoblg4um6ffgoca52nvdxrr43.py":31:30)
#loc11 = loc("/workspace/caption-remover-main/src/stages/inpaint/../../../.torch_compile_cache/fg/cfgy6yonmdor5owk54pcezsvoecvoblg4um6ffgoca52nvdxrr43.py":31:48)
#loc12 = loc("/workspace/caption-remover-main/src/stages/inpaint/../../../.torch_compile_cache/fg/cfgy6yonmdor5owk54pcezsvoecvoblg4um6ffgoca52nvdxrr43.py":34:19)
#loc13 = loc("/workspace/caption-remover-main/src/stages/inpaint/../../../.torch_compile_cache/fg/cfgy6yonmdor5owk54pcezsvoecvoblg4um6ffgoca52nvdxrr43.py":37:31)
#loc14 = loc("/workspace/caption-remover-main/src/stages/inpaint/../../../.torch_compile_cache/fg/cfgy6yonmdor5owk54pcezsvoecvoblg4um6ffgoca52nvdxrr43.py":37:52)
#loc15 = loc("/workspace/caption-remover-main/src/stages/inpaint/../../../.torch_compile_cache/fg/cfgy6yonmdor5owk54pcezsvoecvoblg4um6ffgoca52nvdxrr43.py":37:45)
#loc16 = loc("/workspace/caption-remover-main/src/stages/inpaint/../../../.torch_compile_cache/fg/cfgy6yonmdor5owk54pcezsvoecvoblg4um6ffgoca52nvdxrr43.py":39:34)
#loc17 = loc("/workspace/caption-remover-main/src/stages/inpaint/../../../.torch_compile_cache/fg/cfgy6yonmdor5owk54pcezsvoecvoblg4um6ffgoca52nvdxrr43.py":40:33)
#loc18 = loc("/workspace/caption-remover-main/src/stages/inpaint/../../../.torch_compile_cache/fg/cfgy6yonmdor5owk54pcezsvoecvoblg4um6ffgoca52nvdxrr43.py":33:32)
#loc19 = loc("/workspace/caption-remover-main/src/stages/inpaint/../../../.torch_compile_cache/fg/cfgy6yonmdor5owk54pcezsvoecvoblg4um6ffgoca52nvdxrr43.py":41:25)
#loc20 = loc("/workspace/caption-remover-main/src/stages/inpaint/../../../.torch_compile_cache/fg/cfgy6yonmdor5owk54pcezsvoecvoblg4um6ffgoca52nvdxrr43.py":41:37)
#loc21 = loc("/workspace/caption-remover-main/src/stages/inpaint/../../../.torch_compile_cache/fg/cfgy6yonmdor5owk54pcezsvoecvoblg4um6ffgoca52nvdxrr43.py":41:4)
#loc22 = loc(fused[#loc17, #loc18])
