#loc = loc("/workspace/caption-remover-main/src/stages/inpaint/../../../.torch_compile_cache/lt/cltem7i23lbxtu2jehocpbq2zb4etwwvcwgxiiujmadmvtgzzyyd.py":20:0)
module {
  tt.func public @triton__0d1d2d3d45de(%arg0: !tt.ptr<f16, 1> {tt.divisibility = 16 : i32} loc("/workspace/caption-remover-main/src/stages/inpaint/../../../.torch_compile_cache/lt/cltem7i23lbxtu2jehocpbq2zb4etwwvcwgxiiujmadmvtgzzyyd.py":20:0), %arg1: !tt.ptr<f16, 1> {tt.divisibility = 16 : i32} loc("/workspace/caption-remover-main/src/stages/inpaint/../../../.torch_compile_cache/lt/cltem7i23lbxtu2jehocpbq2zb4etwwvcwgxiiujmadmvtgzzyyd.py":20:0), %arg2: !tt.ptr<f16, 1> {tt.divisibility = 16 : i32} loc("/workspace/caption-remover-main/src/stages/inpaint/../../../.torch_compile_cache/lt/cltem7i23lbxtu2jehocpbq2zb4etwwvcwgxiiujmadmvtgzzyyd.py":20:0), %arg3: !tt.ptr<f16, 1> {tt.divisibility = 16 : i32} loc("/workspace/caption-remover-main/src/stages/inpaint/../../../.torch_compile_cache/lt/cltem7i23lbxtu2jehocpbq2zb4etwwvcwgxiiujmadmvtgzzyyd.py":20:0), %arg4: i32 loc("/workspace/caption-remover-main/src/stages/inpaint/../../../.torch_compile_cache/lt/cltem7i23lbxtu2jehocpbq2zb4etwwvcwgxiiujmadmvtgzzyyd.py":20:0), %arg5: i32 {tt.divisibility = 16 : i32, tt.max_divisibility = 16 : i32} loc("/workspace/caption-remover-main/src/stages/inpaint/../../../.torch_compile_cache/lt/cltem7i23lbxtu2jehocpbq2zb4etwwvcwgxiiujmadmvtgzzyyd.py":20:0)) attributes {noinline = false} {
    %cst = arith.constant dense<1.250000e-01> : tensor<512xf32> loc(#loc1)
    %cst_0 = arith.constant dense<640> : tensor<512xi32> loc(#loc2)
    %c512_i32 = arith.constant 512 : i32 loc(#loc3)
    %0 = tt.get_program_id x : i32 loc(#loc4)
    %1 = arith.muli %0, %c512_i32 : i32 loc(#loc3)
    %2 = tt.make_range {end = 512 : i32, start = 0 : i32} : tensor<512xi32> loc(#loc5)
    %3 = tt.splat %1 : (i32) -> tensor<512xi32> loc(#loc6)
    %4 = arith.addi %3, %2 : tensor<512xi32> loc(#loc6)
    %5 = tt.splat %arg5 : (i32) -> tensor<512xi32> loc(#loc7)
    %6 = arith.cmpi slt, %4, %5 : tensor<512xi32> loc(#loc7)
    %7 = tt.splat %arg4 : (i32) -> tensor<512xi32> loc(#loc8)
    %8 = arith.divsi %4, %7 : tensor<512xi32> loc(#loc8)
    %9 = arith.remsi %8, %cst_0 : tensor<512xi32> loc(#loc2)
    %10 = tt.splat %arg1 : (!tt.ptr<f16, 1>) -> tensor<512x!tt.ptr<f16, 1>> loc(#loc9)
    %11 = tt.addptr %10, %4 : tensor<512x!tt.ptr<f16, 1>>, tensor<512xi32> loc(#loc9)
    %12 = tt.load %11, %6 {cache = 1 : i32, evict = 3 : i32, isVolatile = false} : tensor<512xf16> loc(#loc10)
    %13 = arith.extf %12 : tensor<512xf16> to tensor<512xf32> loc(#loc11)
    %14 = tt.splat %arg0 : (!tt.ptr<f16, 1>) -> tensor<512x!tt.ptr<f16, 1>> loc(#loc12)
    %15 = tt.addptr %14, %4 : tensor<512x!tt.ptr<f16, 1>>, tensor<512xi32> loc(#loc12)
    %16 = tt.load %15, %6 {cache = 1 : i32, evict = 3 : i32, isVolatile = false} : tensor<512xf16> loc(#loc13)
    %17 = arith.extf %16 : tensor<512xf16> to tensor<512xf32> loc(#loc14)
    %18 = tt.splat %arg2 : (!tt.ptr<f16, 1>) -> tensor<512x!tt.ptr<f16, 1>> loc(#loc15)
    %19 = tt.addptr %18, %9 : tensor<512x!tt.ptr<f16, 1>>, tensor<512xi32> loc(#loc15)
    %20 = tt.load %19, %6 {cache = 1 : i32, evict = 3 : i32, isVolatile = false} : tensor<512xf16> loc(#loc16)
    %21 = arith.extf %20 : tensor<512xf16> to tensor<512xf32> loc(#loc17)
    %22 = tt.splat %arg3 : (!tt.ptr<f16, 1>) -> tensor<512x!tt.ptr<f16, 1>> loc(#loc18)
    %23 = tt.addptr %22, %4 : tensor<512x!tt.ptr<f16, 1>>, tensor<512xi32> loc(#loc18)
    %24 = tt.load %23, %6 {cache = 1 : i32, evict = 3 : i32, isVolatile = false} : tensor<512xf16> loc(#loc19)
    %25 = arith.extf %24 : tensor<512xf16> to tensor<512xf32> loc(#loc20)
    %26 = arith.addf %17, %21 : tensor<512xf32> loc(#loc21)
    %27 = arith.mulf %25, %cst : tensor<512xf32> loc(#loc1)
    %28 = arith.addf %26, %27 : tensor<512xf32> loc(#loc22)
    %29 = arith.addf %13, %28 : tensor<512xf32> loc(#loc23)
    %30 = arith.truncf %29 : tensor<512xf32> to tensor<512xf16> loc(#loc24)
    tt.store %15, %30, %6 {cache = 1 : i32, evict = 1 : i32} : tensor<512xf16> loc(#loc24)
    tt.return loc(#loc25)
  } loc(#loc)
} loc(#loc)
#loc1 = loc("/workspace/caption-remover-main/src/stages/inpaint/../../../.torch_compile_cache/lt/cltem7i23lbxtu2jehocpbq2zb4etwwvcwgxiiujmadmvtgzzyyd.py":32:18)
#loc2 = loc("/workspace/caption-remover-main/src/stages/inpaint/../../../.torch_compile_cache/lt/cltem7i23lbxtu2jehocpbq2zb4etwwvcwgxiiujmadmvtgzzyyd.py":25:27)
#loc3 = loc("/workspace/caption-remover-main/src/stages/inpaint/../../../.torch_compile_cache/lt/cltem7i23lbxtu2jehocpbq2zb4etwwvcwgxiiujmadmvtgzzyyd.py":21:33)
#loc4 = loc("/workspace/caption-remover-main/src/stages/inpaint/../../../.torch_compile_cache/lt/cltem7i23lbxtu2jehocpbq2zb4etwwvcwgxiiujmadmvtgzzyyd.py":21:28)
#loc5 = loc("/workspace/caption-remover-main/src/stages/inpaint/../../../.torch_compile_cache/lt/cltem7i23lbxtu2jehocpbq2zb4etwwvcwgxiiujmadmvtgzzyyd.py":22:36)
#loc6 = loc("/workspace/caption-remover-main/src/stages/inpaint/../../../.torch_compile_cache/lt/cltem7i23lbxtu2jehocpbq2zb4etwwvcwgxiiujmadmvtgzzyyd.py":22:23)
#loc7 = loc("/workspace/caption-remover-main/src/stages/inpaint/../../../.torch_compile_cache/lt/cltem7i23lbxtu2jehocpbq2zb4etwwvcwgxiiujmadmvtgzzyyd.py":23:21)
#loc8 = loc("/workspace/caption-remover-main/src/stages/inpaint/../../../.torch_compile_cache/lt/cltem7i23lbxtu2jehocpbq2zb4etwwvcwgxiiujmadmvtgzzyyd.py":25:20)
#loc9 = loc("/workspace/caption-remover-main/src/stages/inpaint/../../../.torch_compile_cache/lt/cltem7i23lbxtu2jehocpbq2zb4etwwvcwgxiiujmadmvtgzzyyd.py":26:30)
#loc10 = loc("/workspace/caption-remover-main/src/stages/inpaint/../../../.torch_compile_cache/lt/cltem7i23lbxtu2jehocpbq2zb4etwwvcwgxiiujmadmvtgzzyyd.py":26:35)
#loc11 = loc("/workspace/caption-remover-main/src/stages/inpaint/../../../.torch_compile_cache/lt/cltem7i23lbxtu2jehocpbq2zb4etwwvcwgxiiujmadmvtgzzyyd.py":26:75)
#loc12 = loc("/workspace/caption-remover-main/src/stages/inpaint/../../../.torch_compile_cache/lt/cltem7i23lbxtu2jehocpbq2zb4etwwvcwgxiiujmadmvtgzzyyd.py":27:34)
#loc13 = loc("/workspace/caption-remover-main/src/stages/inpaint/../../../.torch_compile_cache/lt/cltem7i23lbxtu2jehocpbq2zb4etwwvcwgxiiujmadmvtgzzyyd.py":27:39)
#loc14 = loc("/workspace/caption-remover-main/src/stages/inpaint/../../../.torch_compile_cache/lt/cltem7i23lbxtu2jehocpbq2zb4etwwvcwgxiiujmadmvtgzzyyd.py":27:79)
#loc15 = loc("/workspace/caption-remover-main/src/stages/inpaint/../../../.torch_compile_cache/lt/cltem7i23lbxtu2jehocpbq2zb4etwwvcwgxiiujmadmvtgzzyyd.py":28:30)
#loc16 = loc("/workspace/caption-remover-main/src/stages/inpaint/../../../.torch_compile_cache/lt/cltem7i23lbxtu2jehocpbq2zb4etwwvcwgxiiujmadmvtgzzyyd.py":28:35)
#loc17 = loc("/workspace/caption-remover-main/src/stages/inpaint/../../../.torch_compile_cache/lt/cltem7i23lbxtu2jehocpbq2zb4etwwvcwgxiiujmadmvtgzzyyd.py":28:75)
#loc18 = loc("/workspace/caption-remover-main/src/stages/inpaint/../../../.torch_compile_cache/lt/cltem7i23lbxtu2jehocpbq2zb4etwwvcwgxiiujmadmvtgzzyyd.py":29:30)
#loc19 = loc("/workspace/caption-remover-main/src/stages/inpaint/../../../.torch_compile_cache/lt/cltem7i23lbxtu2jehocpbq2zb4etwwvcwgxiiujmadmvtgzzyyd.py":29:35)
#loc20 = loc("/workspace/caption-remover-main/src/stages/inpaint/../../../.torch_compile_cache/lt/cltem7i23lbxtu2jehocpbq2zb4etwwvcwgxiiujmadmvtgzzyyd.py":29:75)
#loc21 = loc("/workspace/caption-remover-main/src/stages/inpaint/../../../.torch_compile_cache/lt/cltem7i23lbxtu2jehocpbq2zb4etwwvcwgxiiujmadmvtgzzyyd.py":30:18)
#loc22 = loc("/workspace/caption-remover-main/src/stages/inpaint/../../../.torch_compile_cache/lt/cltem7i23lbxtu2jehocpbq2zb4etwwvcwgxiiujmadmvtgzzyyd.py":33:18)
#loc23 = loc("/workspace/caption-remover-main/src/stages/inpaint/../../../.torch_compile_cache/lt/cltem7i23lbxtu2jehocpbq2zb4etwwvcwgxiiujmadmvtgzzyyd.py":34:18)
#loc24 = loc("/workspace/caption-remover-main/src/stages/inpaint/../../../.torch_compile_cache/lt/cltem7i23lbxtu2jehocpbq2zb4etwwvcwgxiiujmadmvtgzzyyd.py":37:40)
#loc25 = loc("/workspace/caption-remover-main/src/stages/inpaint/../../../.torch_compile_cache/lt/cltem7i23lbxtu2jehocpbq2zb4etwwvcwgxiiujmadmvtgzzyyd.py":37:4)
