#loc = loc("/workspace/caption-remover-main/src/stages/inpaint/../../../.torch_compile_cache/q5/cq5jony7ax7qzw2tj6kzel3ykhottcsgfhy5s6vgxrpahbywgo6k.py":20:0)
#loc69 = loc(unknown)
module {
  tt.func public @triton__0d1d2d3d4d5d6d7d8d910111213de(%arg0: !tt.ptr<f16, 1> {tt.divisibility = 16 : i32} loc("/workspace/caption-remover-main/src/stages/inpaint/../../../.torch_compile_cache/q5/cq5jony7ax7qzw2tj6kzel3ykhottcsgfhy5s6vgxrpahbywgo6k.py":20:0), %arg1: !tt.ptr<f16, 1> {tt.divisibility = 16 : i32} loc("/workspace/caption-remover-main/src/stages/inpaint/../../../.torch_compile_cache/q5/cq5jony7ax7qzw2tj6kzel3ykhottcsgfhy5s6vgxrpahbywgo6k.py":20:0), %arg2: !tt.ptr<f16, 1> {tt.divisibility = 16 : i32} loc("/workspace/caption-remover-main/src/stages/inpaint/../../../.torch_compile_cache/q5/cq5jony7ax7qzw2tj6kzel3ykhottcsgfhy5s6vgxrpahbywgo6k.py":20:0), %arg3: !tt.ptr<f16, 1> {tt.divisibility = 16 : i32} loc("/workspace/caption-remover-main/src/stages/inpaint/../../../.torch_compile_cache/q5/cq5jony7ax7qzw2tj6kzel3ykhottcsgfhy5s6vgxrpahbywgo6k.py":20:0), %arg4: !tt.ptr<f16, 1> {tt.divisibility = 16 : i32} loc("/workspace/caption-remover-main/src/stages/inpaint/../../../.torch_compile_cache/q5/cq5jony7ax7qzw2tj6kzel3ykhottcsgfhy5s6vgxrpahbywgo6k.py":20:0), %arg5: !tt.ptr<f16, 1> {tt.divisibility = 16 : i32} loc("/workspace/caption-remover-main/src/stages/inpaint/../../../.torch_compile_cache/q5/cq5jony7ax7qzw2tj6kzel3ykhottcsgfhy5s6vgxrpahbywgo6k.py":20:0), %arg6: !tt.ptr<f16, 1> {tt.divisibility = 16 : i32} loc("/workspace/caption-remover-main/src/stages/inpaint/../../../.torch_compile_cache/q5/cq5jony7ax7qzw2tj6kzel3ykhottcsgfhy5s6vgxrpahbywgo6k.py":20:0), %arg7: !tt.ptr<f16, 1> {tt.divisibility = 16 : i32} loc("/workspace/caption-remover-main/src/stages/inpaint/../../../.torch_compile_cache/q5/cq5jony7ax7qzw2tj6kzel3ykhottcsgfhy5s6vgxrpahbywgo6k.py":20:0), %arg8: !tt.ptr<f16, 1> {tt.divisibility = 16 : i32} loc("/workspace/caption-remover-main/src/stages/inpaint/../../../.torch_compile_cache/q5/cq5jony7ax7qzw2tj6kzel3ykhottcsgfhy5s6vgxrpahbywgo6k.py":20:0), %arg9: i32 loc("/workspace/caption-remover-main/src/stages/inpaint/../../../.torch_compile_cache/q5/cq5jony7ax7qzw2tj6kzel3ykhottcsgfhy5s6vgxrpahbywgo6k.py":20:0), %arg10: i32 loc("/workspace/caption-remover-main/src/stages/inpaint/../../../.torch_compile_cache/q5/cq5jony7ax7qzw2tj6kzel3ykhottcsgfhy5s6vgxrpahbywgo6k.py":20:0), %arg11: i32 loc("/workspace/caption-remover-main/src/stages/inpaint/../../../.torch_compile_cache/q5/cq5jony7ax7qzw2tj6kzel3ykhottcsgfhy5s6vgxrpahbywgo6k.py":20:0), %arg12: i32 loc("/workspace/caption-remover-main/src/stages/inpaint/../../../.torch_compile_cache/q5/cq5jony7ax7qzw2tj6kzel3ykhottcsgfhy5s6vgxrpahbywgo6k.py":20:0), %arg13: i32 {tt.divisibility = 16 : i32, tt.max_divisibility = 16 : i32} loc("/workspace/caption-remover-main/src/stages/inpaint/../../../.torch_compile_cache/q5/cq5jony7ax7qzw2tj6kzel3ykhottcsgfhy5s6vgxrpahbywgo6k.py":20:0)) attributes {noinline = false} {
    %cst = arith.constant dense<0.000000e+00> : tensor<1x1024xf16> loc(#loc1)
    %cst_0 = arith.constant 0.000000e+00 : f32 loc(#loc128)
    %cst_1 = arith.constant dense<1.000000e+00> : tensor<1x1024xf32> loc(#loc106)
    %c1280_i32 = arith.constant 1280 : i32 loc(#loc7)
    %c1024_i32 = arith.constant 1024 : i32 loc(#loc8)
    %c0_i32 = arith.constant 0 : i32 loc(#loc8)
    %cst_2 = arith.constant dense<9.99999974E-6> : tensor<1x1xf32> loc(#loc9)
    %cst_3 = arith.constant dense<1.280000e+03> : tensor<1x1xf32> loc(#loc10)
    %cst_4 = arith.constant dense<1.250000e-01> : tensor<1x1024xf32> loc(#loc11)
    %cst_5 = arith.constant dense<0.000000e+00> : tensor<1x1024xf32> loc(#loc12)
    %cst_6 = arith.constant dense<1280> : tensor<1x1024xi32> loc(#loc13)
    %0 = tt.get_program_id x : i32 loc(#loc14)
    %1 = arith.cmpi slt, %0, %arg12 : i32 loc(#loc15)
    %2 = tt.make_range {end = 1024 : i32, start = 0 : i32} : tensor<1024xi32> loc(#loc16)
    %3 = tt.expand_dims %2 {axis = 0 : i32} : (tensor<1024xi32>) -> tensor<1x1024xi32> loc(#loc17)
    %4 = arith.remsi %0, %arg9 : i32 loc(#loc18)
    %5 = arith.divsi %0, %arg9 : i32 loc(#loc19)
    %6 = arith.muli %0, %c1280_i32 : i32 loc(#loc20)
    %7 = tt.splat %6 : (i32) -> tensor<1x1024xi32> loc(#loc21)
    %8 = tt.splat %arg0 : (!tt.ptr<f16, 1>) -> tensor<1x1024x!tt.ptr<f16, 1>> loc(#loc22)
    %9 = tt.splat %1 : (i1) -> tensor<1x1024xi1> loc(#loc23)
    %10 = tt.splat %arg1 : (!tt.ptr<f16, 1>) -> tensor<1x1024x!tt.ptr<f16, 1>> loc(#loc24)
    %11 = tt.splat %arg2 : (!tt.ptr<f16, 1>) -> tensor<1x1024x!tt.ptr<f16, 1>> loc(#loc25)
    %12 = arith.muli %arg10, %arg11 : i32 loc(#loc26)
    %13 = tt.splat %12 : (i32) -> tensor<1x1024xi32> loc(#loc27)
    %14 = tt.splat %4 : (i32) -> tensor<1x1024xi32> loc(#loc28)
    %15 = arith.muli %arg10, %c1280_i32 : i32 loc(#loc29)
    %16 = arith.muli %15, %arg11 : i32 loc(#loc30)
    %17 = arith.muli %16, %5 : i32 loc(#loc31)
    %18 = tt.splat %17 : (i32) -> tensor<1x1024xi32> loc(#loc32)
    %19 = tt.splat %arg3 : (!tt.ptr<f16, 1>) -> tensor<1x1024x!tt.ptr<f16, 1>> loc(#loc33)
    %20 = tt.splat %arg4 : (!tt.ptr<f16, 1>) -> tensor<1x1024x!tt.ptr<f16, 1>> loc(#loc34)
    %21 = tt.splat %arg5 : (!tt.ptr<f16, 1>) -> tensor<1x1024x!tt.ptr<f16, 1>> loc(#loc35)
    %22:3 = scf.for %arg14 = %c0_i32 to %c1280_i32 step %c1024_i32 iter_args(%arg15 = %cst_5, %arg16 = %cst_5, %arg17 = %cst_5) -> (tensor<1x1024xf32>, tensor<1x1024xf32>, tensor<1x1024xf32>)  : i32 {
      %36 = tt.splat %arg14 : (i32) -> tensor<1x1024xi32> loc(#loc36)
      %37 = arith.addi %36, %3 : tensor<1x1024xi32> loc(#loc36)
      %38 = arith.cmpi slt, %37, %cst_6 : tensor<1x1024xi32> loc(#loc13)
      %39 = arith.addi %37, %7 : tensor<1x1024xi32> loc(#loc21)
      %40 = tt.addptr %8, %39 : tensor<1x1024x!tt.ptr<f16, 1>>, tensor<1x1024xi32> loc(#loc22)
      %41 = arith.andi %38, %9 : tensor<1x1024xi1> loc(#loc23)
      %42 = tt.load %40, %41, %cst {cache = 1 : i32, evict = 2 : i32, isVolatile = false} : tensor<1x1024xf16> loc(#loc12)
      %43 = arith.extf %42 : tensor<1x1024xf16> to tensor<1x1024xf32> loc(#loc37)
      %44 = tt.addptr %10, %37 : tensor<1x1024x!tt.ptr<f16, 1>>, tensor<1x1024xi32> loc(#loc24)
      %45 = tt.load %44, %38, %cst {cache = 1 : i32, evict = 3 : i32, isVolatile = false} : tensor<1x1024xf16> loc(#loc38)
      %46 = arith.extf %45 : tensor<1x1024xf16> to tensor<1x1024xf32> loc(#loc39)
      %47 = tt.addptr %11, %39 : tensor<1x1024x!tt.ptr<f16, 1>>, tensor<1x1024xi32> loc(#loc25)
      %48 = tt.load %47, %41, %cst {cache = 1 : i32, evict = 2 : i32, isVolatile = false} : tensor<1x1024xf16> loc(#loc40)
      %49 = arith.extf %48 : tensor<1x1024xf16> to tensor<1x1024xf32> loc(#loc41)
      %50 = arith.muli %13, %37 : tensor<1x1024xi32> loc(#loc27)
      %51 = arith.addi %14, %50 : tensor<1x1024xi32> loc(#loc28)
      %52 = arith.addi %51, %18 : tensor<1x1024xi32> loc(#loc32)
      %53 = tt.addptr %19, %52 : tensor<1x1024x!tt.ptr<f16, 1>>, tensor<1x1024xi32> loc(#loc33)
      %54 = tt.load %53, %41, %cst {cache = 1 : i32, evict = 3 : i32, isVolatile = false} : tensor<1x1024xf16> loc(#loc42)
      %55 = arith.extf %54 : tensor<1x1024xf16> to tensor<1x1024xf32> loc(#loc43)
      %56 = tt.addptr %20, %37 : tensor<1x1024x!tt.ptr<f16, 1>>, tensor<1x1024xi32> loc(#loc34)
      %57 = tt.load %56, %38, %cst {cache = 1 : i32, evict = 3 : i32, isVolatile = false} : tensor<1x1024xf16> loc(#loc44)
      %58 = arith.extf %57 : tensor<1x1024xf16> to tensor<1x1024xf32> loc(#loc45)
      %59 = tt.addptr %21, %52 : tensor<1x1024x!tt.ptr<f16, 1>>, tensor<1x1024xi32> loc(#loc35)
      %60 = tt.load %59, %41, %cst {cache = 1 : i32, evict = 3 : i32, isVolatile = false} : tensor<1x1024xf16> loc(#loc46)
      %61 = arith.extf %60 : tensor<1x1024xf16> to tensor<1x1024xf32> loc(#loc47)
      %62 = arith.addf %43, %46 : tensor<1x1024xf32> loc(#loc48)
      %63 = arith.mulf %49, %cst_4 : tensor<1x1024xf32> loc(#loc11)
      %64 = arith.addf %62, %63 : tensor<1x1024xf32> loc(#loc49)
      %65 = arith.addf %55, %58 : tensor<1x1024xf32> loc(#loc50)
      %66 = arith.mulf %61, %cst_4 : tensor<1x1024xf32> loc(#loc51)
      %67 = arith.addf %65, %66 : tensor<1x1024xf32> loc(#loc52)
      %68 = arith.addf %64, %67 : tensor<1x1024xf32> loc(#loc53)
      %69 = arith.cmpi eq, %arg14, %c0_i32 : i32 loc(#loc54)
      %70:3 = scf.if %69 -> (tensor<1x1024xf32>, tensor<1x1024xf32>, tensor<1x1024xf32>) {
        scf.yield %cst_1, %cst_5, %68 : tensor<1x1024xf32>, tensor<1x1024xf32>, tensor<1x1024xf32> loc(#loc108)
      } else {
        %75 = arith.subf %68, %arg15 : tensor<1x1024xf32> loc(#loc109)
        %76 = arith.addf %arg17, %cst_1 : tensor<1x1024xf32> loc(#loc110)
        %77 = arith.divf %75, %76 : tensor<1x1024xf32> loc(#loc111)
        %78 = arith.addf %arg15, %77 : tensor<1x1024xf32> loc(#loc112)
        %79 = arith.subf %68, %78 : tensor<1x1024xf32> loc(#loc113)
        %80 = arith.mulf %75, %79 : tensor<1x1024xf32> loc(#loc114)
        %81 = arith.addf %arg16, %80 : tensor<1x1024xf32> loc(#loc115)
        scf.yield %76, %81, %78 : tensor<1x1024xf32>, tensor<1x1024xf32>, tensor<1x1024xf32> loc(#loc115)
      } loc(#loc107)
      %71 = arith.select %41, %70#2, %arg15 : tensor<1x1024xi1>, tensor<1x1024xf32> loc(#loc64)
      %72 = arith.select %41, %70#1, %arg16 : tensor<1x1024xi1>, tensor<1x1024xf32> loc(#loc65)
      %73 = arith.select %41, %70#0, %arg17 : tensor<1x1024xi1>, tensor<1x1024xf32> loc(#loc66)
      %74 = arith.truncf %68 : tensor<1x1024xf32> to tensor<1x1024xf16> loc(#loc67)
      tt.store %40, %74, %41 {cache = 1 : i32, evict = 1 : i32} : tensor<1x1024xf16> loc(#loc67)
      scf.yield %71, %72, %73 : tensor<1x1024xf32>, tensor<1x1024xf32>, tensor<1x1024xf32> loc(#loc68)
    } loc(#loc8)
    %23:3 = "tt.reduce"(%22#0, %22#1, %22#2) <{axis = 1 : i32}> ({
    ^bb0(%arg14: f32 loc(unknown), %arg15: f32 loc(unknown), %arg16: f32 loc(unknown), %arg17: f32 loc(unknown), %arg18: f32 loc(unknown), %arg19: f32 loc(unknown)):
      %36 = arith.subf %arg17, %arg14 : f32 loc(#loc129)
      %37 = arith.addf %arg16, %arg19 : f32 loc(#loc130)
      %38 = arith.cmpf oeq, %37, %cst_0 : f32 loc(#loc128)
      %39 = arith.divf %arg19, %37 : f32 loc(#loc131)
      %40 = arith.select %38, %cst_0, %39 : f32 loc(#loc132)
      %41 = arith.mulf %36, %40 : f32 loc(#loc133)
      %42 = arith.addf %arg14, %41 : f32 loc(#loc134)
      %43 = arith.addf %arg15, %arg18 : f32 loc(#loc135)
      %44 = arith.mulf %36, %36 : f32 loc(#loc136)
      %45 = arith.mulf %44, %arg16 : f32 loc(#loc137)
      %46 = arith.mulf %45, %40 : f32 loc(#loc138)
      %47 = arith.addf %43, %46 : f32 loc(#loc139)
      tt.reduce.return %42, %47, %37 : f32, f32, f32 loc(#loc116)
    }) : (tensor<1x1024xf32>, tensor<1x1024xf32>, tensor<1x1024xf32>) -> (tensor<1xf32>, tensor<1xf32>, tensor<1xf32>) loc(#loc116)
    %24 = tt.expand_dims %23#0 {axis = 1 : i32} : (tensor<1xf32>) -> tensor<1x1xf32> loc(#loc81)
    %25 = tt.expand_dims %23#1 {axis = 1 : i32} : (tensor<1xf32>) -> tensor<1x1xf32> loc(#loc82)
    %26 = arith.muli %0, %c1280_i32 : i32 loc(#loc83)
    %27 = tt.splat %26 : (i32) -> tensor<1x1024xi32> loc(#loc84)
    %28 = tt.splat %arg0 : (!tt.ptr<f16, 1>) -> tensor<1x1024x!tt.ptr<f16, 1>> loc(#loc85)
    %29 = tt.splat %1 : (i1) -> tensor<1x1024xi1> loc(#loc86)
    %30 = tt.splat %arg6 : (!tt.ptr<f16, 1>) -> tensor<1x1024x!tt.ptr<f16, 1>> loc(#loc87)
    %31 = tt.splat %arg7 : (!tt.ptr<f16, 1>) -> tensor<1x1024x!tt.ptr<f16, 1>> loc(#loc88)
    %32 = tt.broadcast %24 : (tensor<1x1xf32>) -> tensor<1x1024xf32> loc(#loc89)
    %33 = arith.divf %25, %cst_3 : tensor<1x1xf32> loc(#loc10)
    %34 = arith.addf %33, %cst_2 : tensor<1x1xf32> loc(#loc9)
    %35 = tt.splat %arg8 : (!tt.ptr<f16, 1>) -> tensor<1x1024x!tt.ptr<f16, 1>> loc(#loc90)
    scf.for %arg14 = %c0_i32 to %c1280_i32 step %c1024_i32  : i32 {
      %36 = tt.splat %arg14 : (i32) -> tensor<1x1024xi32> loc(#loc92)
      %37 = arith.addi %36, %3 : tensor<1x1024xi32> loc(#loc92)
      %38 = arith.cmpi slt, %37, %cst_6 : tensor<1x1024xi32> loc(#loc93)
      %39 = arith.addi %37, %27 : tensor<1x1024xi32> loc(#loc84)
      %40 = tt.addptr %28, %39 : tensor<1x1024x!tt.ptr<f16, 1>>, tensor<1x1024xi32> loc(#loc85)
      %41 = arith.andi %38, %29 : tensor<1x1024xi1> loc(#loc86)
      %42 = tt.load %40, %41, %cst {cache = 1 : i32, evict = 2 : i32, isVolatile = false} : tensor<1x1024xf16> loc(#loc94)
      %43 = arith.extf %42 : tensor<1x1024xf16> to tensor<1x1024xf32> loc(#loc95)
      %44 = tt.addptr %30, %37 : tensor<1x1024x!tt.ptr<f16, 1>>, tensor<1x1024xi32> loc(#loc87)
      %45 = tt.load %44, %38, %cst {cache = 1 : i32, evict = 3 : i32, isVolatile = false} : tensor<1x1024xf16> loc(#loc96)
      %46 = arith.extf %45 : tensor<1x1024xf16> to tensor<1x1024xf32> loc(#loc97)
      %47 = tt.addptr %31, %37 : tensor<1x1024x!tt.ptr<f16, 1>>, tensor<1x1024xi32> loc(#loc88)
      %48 = tt.load %47, %38, %cst {cache = 1 : i32, evict = 3 : i32, isVolatile = false} : tensor<1x1024xf16> loc(#loc1)
      %49 = arith.extf %48 : tensor<1x1024xf16> to tensor<1x1024xf32> loc(#loc98)
      %50 = arith.subf %43, %32 : tensor<1x1024xf32> loc(#loc89)
      %51 = tt.extern_elementwise %34 {libname = "libdevice", libpath = "/opt/venv/lib/python3.10/site-packages/triton/language/../third_party/cuda/lib/libdevice.10.bc", pure = true, symbol = "__nv_rsqrtf"} : (tensor<1x1xf32>) -> tensor<1x1xf32> loc(#loc99)
      %52 = tt.broadcast %51 : (tensor<1x1xf32>) -> tensor<1x1024xf32> loc(#loc100)
      %53 = arith.mulf %50, %52 : tensor<1x1024xf32> loc(#loc100)
      %54 = arith.mulf %53, %46 : tensor<1x1024xf32> loc(#loc101)
      %55 = arith.addf %54, %49 : tensor<1x1024xf32> loc(#loc102)
      %56 = tt.addptr %35, %39 : tensor<1x1024x!tt.ptr<f16, 1>>, tensor<1x1024xi32> loc(#loc90)
      %57 = arith.truncf %55 : tensor<1x1024xf32> to tensor<1x1024xf16> loc(#loc103)
      tt.store %56, %57, %41 {cache = 1 : i32, evict = 1 : i32} : tensor<1x1024xf16> loc(#loc103)
    } loc(#loc91)
    tt.return loc(#loc104)
  } loc(#loc)
} loc(#loc)
#loc1 = loc("/workspace/caption-remover-main/src/stages/inpaint/../../../.torch_compile_cache/q5/cq5jony7ax7qzw2tj6kzel3ykhottcsgfhy5s6vgxrpahbywgo6k.py":73:40)
#loc2 = loc("/opt/venv/lib/python3.10/site-packages/torch/_inductor/triton_helpers.py":121:39)
#loc3 = loc("/opt/venv/lib/python3.10/site-packages/torch/_inductor/triton_helpers.py":131:46)
#loc4 = loc("/workspace/caption-remover-main/src/stages/inpaint/../../../.torch_compile_cache/q5/cq5jony7ax7qzw2tj6kzel3ykhottcsgfhy5s6vgxrpahbywgo6k.py":62:44)
#loc5 = loc("/opt/venv/lib/python3.10/site-packages/torch/_inductor/triton_helpers.py":106:46)
#loc6 = loc("/workspace/caption-remover-main/src/stages/inpaint/../../../.torch_compile_cache/q5/cq5jony7ax7qzw2tj6kzel3ykhottcsgfhy5s6vgxrpahbywgo6k.py":55:55)
#loc7 = loc("/workspace/caption-remover-main/src/stages/inpaint/../../../.torch_compile_cache/q5/cq5jony7ax7qzw2tj6kzel3ykhottcsgfhy5s6vgxrpahbywgo6k.py":21:13)
#loc8 = loc("/workspace/caption-remover-main/src/stages/inpaint/../../../.torch_compile_cache/q5/cq5jony7ax7qzw2tj6kzel3ykhottcsgfhy5s6vgxrpahbywgo6k.py":32:36)
#loc9 = loc("/workspace/caption-remover-main/src/stages/inpaint/../../../.torch_compile_cache/q5/cq5jony7ax7qzw2tj6kzel3ykhottcsgfhy5s6vgxrpahbywgo6k.py":79:24)
#loc10 = loc("/workspace/caption-remover-main/src/stages/inpaint/../../../.torch_compile_cache/q5/cq5jony7ax7qzw2tj6kzel3ykhottcsgfhy5s6vgxrpahbywgo6k.py":77:24)
#loc11 = loc("/workspace/caption-remover-main/src/stages/inpaint/../../../.torch_compile_cache/q5/cq5jony7ax7qzw2tj6kzel3ykhottcsgfhy5s6vgxrpahbywgo6k.py":44:22)
#loc12 = loc("/workspace/caption-remover-main/src/stages/inpaint/../../../.torch_compile_cache/q5/cq5jony7ax7qzw2tj6kzel3ykhottcsgfhy5s6vgxrpahbywgo6k.py":36:55)
#loc13 = loc("/workspace/caption-remover-main/src/stages/inpaint/../../../.torch_compile_cache/q5/cq5jony7ax7qzw2tj6kzel3ykhottcsgfhy5s6vgxrpahbywgo6k.py":34:25)
#loc14 = loc("/workspace/caption-remover-main/src/stages/inpaint/../../../.torch_compile_cache/q5/cq5jony7ax7qzw2tj6kzel3ykhottcsgfhy5s6vgxrpahbywgo6k.py":22:28)
#loc15 = loc("/workspace/caption-remover-main/src/stages/inpaint/../../../.torch_compile_cache/q5/cq5jony7ax7qzw2tj6kzel3ykhottcsgfhy5s6vgxrpahbywgo6k.py":24:21)
#loc16 = loc("/workspace/caption-remover-main/src/stages/inpaint/../../../.torch_compile_cache/q5/cq5jony7ax7qzw2tj6kzel3ykhottcsgfhy5s6vgxrpahbywgo6k.py":25:25)
#loc17 = loc("/workspace/caption-remover-main/src/stages/inpaint/../../../.torch_compile_cache/q5/cq5jony7ax7qzw2tj6kzel3ykhottcsgfhy5s6vgxrpahbywgo6k.py":25:33)
#loc18 = loc("/workspace/caption-remover-main/src/stages/inpaint/../../../.torch_compile_cache/q5/cq5jony7ax7qzw2tj6kzel3ykhottcsgfhy5s6vgxrpahbywgo6k.py":27:18)
#loc19 = loc("/workspace/caption-remover-main/src/stages/inpaint/../../../.torch_compile_cache/q5/cq5jony7ax7qzw2tj6kzel3ykhottcsgfhy5s6vgxrpahbywgo6k.py":28:20)
#loc20 = loc("/workspace/caption-remover-main/src/stages/inpaint/../../../.torch_compile_cache/q5/cq5jony7ax7qzw2tj6kzel3ykhottcsgfhy5s6vgxrpahbywgo6k.py":36:49)
#loc21 = loc("/workspace/caption-remover-main/src/stages/inpaint/../../../.torch_compile_cache/q5/cq5jony7ax7qzw2tj6kzel3ykhottcsgfhy5s6vgxrpahbywgo6k.py":36:44)
#loc22 = loc("/workspace/caption-remover-main/src/stages/inpaint/../../../.torch_compile_cache/q5/cq5jony7ax7qzw2tj6kzel3ykhottcsgfhy5s6vgxrpahbywgo6k.py":36:38)
#loc23 = loc("/workspace/caption-remover-main/src/stages/inpaint/../../../.torch_compile_cache/q5/cq5jony7ax7qzw2tj6kzel3ykhottcsgfhy5s6vgxrpahbywgo6k.py":36:63)
#loc24 = loc("/workspace/caption-remover-main/src/stages/inpaint/../../../.torch_compile_cache/q5/cq5jony7ax7qzw2tj6kzel3ykhottcsgfhy5s6vgxrpahbywgo6k.py":37:34)
#loc25 = loc("/workspace/caption-remover-main/src/stages/inpaint/../../../.torch_compile_cache/q5/cq5jony7ax7qzw2tj6kzel3ykhottcsgfhy5s6vgxrpahbywgo6k.py":38:34)
#loc26 = loc("/workspace/caption-remover-main/src/stages/inpaint/../../../.torch_compile_cache/q5/cq5jony7ax7qzw2tj6kzel3ykhottcsgfhy5s6vgxrpahbywgo6k.py":39:44)
#loc27 = loc("/workspace/caption-remover-main/src/stages/inpaint/../../../.torch_compile_cache/q5/cq5jony7ax7qzw2tj6kzel3ykhottcsgfhy5s6vgxrpahbywgo6k.py":39:48)
#loc28 = loc("/workspace/caption-remover-main/src/stages/inpaint/../../../.torch_compile_cache/q5/cq5jony7ax7qzw2tj6kzel3ykhottcsgfhy5s6vgxrpahbywgo6k.py":39:40)
#loc29 = loc("/workspace/caption-remover-main/src/stages/inpaint/../../../.torch_compile_cache/q5/cq5jony7ax7qzw2tj6kzel3ykhottcsgfhy5s6vgxrpahbywgo6k.py":39:60)
#loc30 = loc("/workspace/caption-remover-main/src/stages/inpaint/../../../.torch_compile_cache/q5/cq5jony7ax7qzw2tj6kzel3ykhottcsgfhy5s6vgxrpahbywgo6k.py":39:64)
#loc31 = loc("/workspace/caption-remover-main/src/stages/inpaint/../../../.torch_compile_cache/q5/cq5jony7ax7qzw2tj6kzel3ykhottcsgfhy5s6vgxrpahbywgo6k.py":39:68)
#loc32 = loc("/workspace/caption-remover-main/src/stages/inpaint/../../../.torch_compile_cache/q5/cq5jony7ax7qzw2tj6kzel3ykhottcsgfhy5s6vgxrpahbywgo6k.py":39:55)
#loc33 = loc("/workspace/caption-remover-main/src/stages/inpaint/../../../.torch_compile_cache/q5/cq5jony7ax7qzw2tj6kzel3ykhottcsgfhy5s6vgxrpahbywgo6k.py":39:34)
#loc34 = loc("/workspace/caption-remover-main/src/stages/inpaint/../../../.torch_compile_cache/q5/cq5jony7ax7qzw2tj6kzel3ykhottcsgfhy5s6vgxrpahbywgo6k.py":40:35)
#loc35 = loc("/workspace/caption-remover-main/src/stages/inpaint/../../../.torch_compile_cache/q5/cq5jony7ax7qzw2tj6kzel3ykhottcsgfhy5s6vgxrpahbywgo6k.py":41:35)
#loc36 = loc("/workspace/caption-remover-main/src/stages/inpaint/../../../.torch_compile_cache/q5/cq5jony7ax7qzw2tj6kzel3ykhottcsgfhy5s6vgxrpahbywgo6k.py":33:27)
#loc37 = loc("/workspace/caption-remover-main/src/stages/inpaint/../../../.torch_compile_cache/q5/cq5jony7ax7qzw2tj6kzel3ykhottcsgfhy5s6vgxrpahbywgo6k.py":36:115)
#loc38 = loc("/workspace/caption-remover-main/src/stages/inpaint/../../../.torch_compile_cache/q5/cq5jony7ax7qzw2tj6kzel3ykhottcsgfhy5s6vgxrpahbywgo6k.py":37:39)
#loc39 = loc("/workspace/caption-remover-main/src/stages/inpaint/../../../.torch_compile_cache/q5/cq5jony7ax7qzw2tj6kzel3ykhottcsgfhy5s6vgxrpahbywgo6k.py":37:90)
#loc40 = loc("/workspace/caption-remover-main/src/stages/inpaint/../../../.torch_compile_cache/q5/cq5jony7ax7qzw2tj6kzel3ykhottcsgfhy5s6vgxrpahbywgo6k.py":38:51)
#loc41 = loc("/workspace/caption-remover-main/src/stages/inpaint/../../../.torch_compile_cache/q5/cq5jony7ax7qzw2tj6kzel3ykhottcsgfhy5s6vgxrpahbywgo6k.py":38:111)
#loc42 = loc("/workspace/caption-remover-main/src/stages/inpaint/../../../.torch_compile_cache/q5/cq5jony7ax7qzw2tj6kzel3ykhottcsgfhy5s6vgxrpahbywgo6k.py":39:74)
#loc43 = loc("/workspace/caption-remover-main/src/stages/inpaint/../../../.torch_compile_cache/q5/cq5jony7ax7qzw2tj6kzel3ykhottcsgfhy5s6vgxrpahbywgo6k.py":39:133)
#loc44 = loc("/workspace/caption-remover-main/src/stages/inpaint/../../../.torch_compile_cache/q5/cq5jony7ax7qzw2tj6kzel3ykhottcsgfhy5s6vgxrpahbywgo6k.py":40:40)
#loc45 = loc("/workspace/caption-remover-main/src/stages/inpaint/../../../.torch_compile_cache/q5/cq5jony7ax7qzw2tj6kzel3ykhottcsgfhy5s6vgxrpahbywgo6k.py":40:91)
#loc46 = loc("/workspace/caption-remover-main/src/stages/inpaint/../../../.torch_compile_cache/q5/cq5jony7ax7qzw2tj6kzel3ykhottcsgfhy5s6vgxrpahbywgo6k.py":41:75)
#loc47 = loc("/workspace/caption-remover-main/src/stages/inpaint/../../../.torch_compile_cache/q5/cq5jony7ax7qzw2tj6kzel3ykhottcsgfhy5s6vgxrpahbywgo6k.py":41:134)
#loc48 = loc("/workspace/caption-remover-main/src/stages/inpaint/../../../.torch_compile_cache/q5/cq5jony7ax7qzw2tj6kzel3ykhottcsgfhy5s6vgxrpahbywgo6k.py":42:22)
#loc49 = loc("/workspace/caption-remover-main/src/stages/inpaint/../../../.torch_compile_cache/q5/cq5jony7ax7qzw2tj6kzel3ykhottcsgfhy5s6vgxrpahbywgo6k.py":45:22)
#loc50 = loc("/workspace/caption-remover-main/src/stages/inpaint/../../../.torch_compile_cache/q5/cq5jony7ax7qzw2tj6kzel3ykhottcsgfhy5s6vgxrpahbywgo6k.py":48:23)
#loc51 = loc("/workspace/caption-remover-main/src/stages/inpaint/../../../.torch_compile_cache/q5/cq5jony7ax7qzw2tj6kzel3ykhottcsgfhy5s6vgxrpahbywgo6k.py":49:24)
#loc52 = loc("/workspace/caption-remover-main/src/stages/inpaint/../../../.torch_compile_cache/q5/cq5jony7ax7qzw2tj6kzel3ykhottcsgfhy5s6vgxrpahbywgo6k.py":50:24)
#loc53 = loc("/workspace/caption-remover-main/src/stages/inpaint/../../../.torch_compile_cache/q5/cq5jony7ax7qzw2tj6kzel3ykhottcsgfhy5s6vgxrpahbywgo6k.py":51:23)
#loc54 = loc("/workspace/caption-remover-main/src/stages/inpaint/../../../.torch_compile_cache/q5/cq5jony7ax7qzw2tj6kzel3ykhottcsgfhy5s6vgxrpahbywgo6k.py":55:66)
#loc55 = loc("/opt/venv/lib/python3.10/site-packages/torch/_inductor/triton_helpers.py":105:7)
#loc56 = loc("/opt/venv/lib/python3.10/site-packages/torch/_inductor/triton_helpers.py":108:31)
#loc57 = loc("/opt/venv/lib/python3.10/site-packages/torch/_inductor/triton_helpers.py":110:24)
#loc58 = loc("/opt/venv/lib/python3.10/site-packages/torch/_inductor/triton_helpers.py":111:30)
#loc59 = loc("/opt/venv/lib/python3.10/site-packages/torch/_inductor/triton_helpers.py":112:34)
#loc60 = loc("/opt/venv/lib/python3.10/site-packages/torch/_inductor/triton_helpers.py":112:26)
#loc61 = loc("/opt/venv/lib/python3.10/site-packages/torch/_inductor/triton_helpers.py":113:39)
#loc62 = loc("/opt/venv/lib/python3.10/site-packages/torch/_inductor/triton_helpers.py":113:31)
#loc63 = loc("/opt/venv/lib/python3.10/site-packages/torch/_inductor/triton_helpers.py":113:22)
#loc64 = loc("/workspace/caption-remover-main/src/stages/inpaint/../../../.torch_compile_cache/q5/cq5jony7ax7qzw2tj6kzel3ykhottcsgfhy5s6vgxrpahbywgo6k.py":57:62)
#loc65 = loc("/workspace/caption-remover-main/src/stages/inpaint/../../../.torch_compile_cache/q5/cq5jony7ax7qzw2tj6kzel3ykhottcsgfhy5s6vgxrpahbywgo6k.py":58:58)
#loc66 = loc("/workspace/caption-remover-main/src/stages/inpaint/../../../.torch_compile_cache/q5/cq5jony7ax7qzw2tj6kzel3ykhottcsgfhy5s6vgxrpahbywgo6k.py":59:66)
#loc67 = loc("/workspace/caption-remover-main/src/stages/inpaint/../../../.torch_compile_cache/q5/cq5jony7ax7qzw2tj6kzel3ykhottcsgfhy5s6vgxrpahbywgo6k.py":60:56)
#loc68 = loc("/workspace/caption-remover-main/src/stages/inpaint/../../../.torch_compile_cache/q5/cq5jony7ax7qzw2tj6kzel3ykhottcsgfhy5s6vgxrpahbywgo6k.py":60:8)
#loc70 = loc("/opt/venv/lib/python3.10/site-packages/torch/_inductor/triton_helpers.py":119:21)
#loc71 = loc("/opt/venv/lib/python3.10/site-packages/torch/_inductor/triton_helpers.py":120:28)
#loc72 = loc("/opt/venv/lib/python3.10/site-packages/torch/_inductor/triton_helpers.py":121:60)
#loc73 = loc("/opt/venv/lib/python3.10/site-packages/torch/_inductor/triton_helpers.py":121:49)
#loc74 = loc("/opt/venv/lib/python3.10/site-packages/torch/_inductor/triton_helpers.py":123:25)
#loc75 = loc("/opt/venv/lib/python3.10/site-packages/torch/_inductor/triton_helpers.py":123:17)
#loc76 = loc("/opt/venv/lib/python3.10/site-packages/torch/_inductor/triton_helpers.py":124:15)
#loc77 = loc("/opt/venv/lib/python3.10/site-packages/torch/_inductor/triton_helpers.py":124:30)
#loc78 = loc("/opt/venv/lib/python3.10/site-packages/torch/_inductor/triton_helpers.py":124:38)
#loc79 = loc("/opt/venv/lib/python3.10/site-packages/torch/_inductor/triton_helpers.py":124:49)
#loc80 = loc("/opt/venv/lib/python3.10/site-packages/torch/_inductor/triton_helpers.py":124:22)
#loc81 = loc("/workspace/caption-remover-main/src/stages/inpaint/../../../.torch_compile_cache/q5/cq5jony7ax7qzw2tj6kzel3ykhottcsgfhy5s6vgxrpahbywgo6k.py":64:22)
#loc82 = loc("/workspace/caption-remover-main/src/stages/inpaint/../../../.torch_compile_cache/q5/cq5jony7ax7qzw2tj6kzel3ykhottcsgfhy5s6vgxrpahbywgo6k.py":65:22)
#loc83 = loc("/workspace/caption-remover-main/src/stages/inpaint/../../../.torch_compile_cache/q5/cq5jony7ax7qzw2tj6kzel3ykhottcsgfhy5s6vgxrpahbywgo6k.py":71:50)
#loc84 = loc("/workspace/caption-remover-main/src/stages/inpaint/../../../.torch_compile_cache/q5/cq5jony7ax7qzw2tj6kzel3ykhottcsgfhy5s6vgxrpahbywgo6k.py":71:45)
#loc85 = loc("/workspace/caption-remover-main/src/stages/inpaint/../../../.torch_compile_cache/q5/cq5jony7ax7qzw2tj6kzel3ykhottcsgfhy5s6vgxrpahbywgo6k.py":71:39)
#loc86 = loc("/workspace/caption-remover-main/src/stages/inpaint/../../../.torch_compile_cache/q5/cq5jony7ax7qzw2tj6kzel3ykhottcsgfhy5s6vgxrpahbywgo6k.py":71:64)
#loc87 = loc("/workspace/caption-remover-main/src/stages/inpaint/../../../.torch_compile_cache/q5/cq5jony7ax7qzw2tj6kzel3ykhottcsgfhy5s6vgxrpahbywgo6k.py":72:35)
#loc88 = loc("/workspace/caption-remover-main/src/stages/inpaint/../../../.torch_compile_cache/q5/cq5jony7ax7qzw2tj6kzel3ykhottcsgfhy5s6vgxrpahbywgo6k.py":73:35)
#loc89 = loc("/workspace/caption-remover-main/src/stages/inpaint/../../../.torch_compile_cache/q5/cq5jony7ax7qzw2tj6kzel3ykhottcsgfhy5s6vgxrpahbywgo6k.py":75:24)
#loc90 = loc("/workspace/caption-remover-main/src/stages/inpaint/../../../.torch_compile_cache/q5/cq5jony7ax7qzw2tj6kzel3ykhottcsgfhy5s6vgxrpahbywgo6k.py":87:29)
#loc91 = loc("/workspace/caption-remover-main/src/stages/inpaint/../../../.torch_compile_cache/q5/cq5jony7ax7qzw2tj6kzel3ykhottcsgfhy5s6vgxrpahbywgo6k.py":67:36)
#loc92 = loc("/workspace/caption-remover-main/src/stages/inpaint/../../../.torch_compile_cache/q5/cq5jony7ax7qzw2tj6kzel3ykhottcsgfhy5s6vgxrpahbywgo6k.py":68:27)
#loc93 = loc("/workspace/caption-remover-main/src/stages/inpaint/../../../.torch_compile_cache/q5/cq5jony7ax7qzw2tj6kzel3ykhottcsgfhy5s6vgxrpahbywgo6k.py":69:25)
#loc94 = loc("/workspace/caption-remover-main/src/stages/inpaint/../../../.torch_compile_cache/q5/cq5jony7ax7qzw2tj6kzel3ykhottcsgfhy5s6vgxrpahbywgo6k.py":71:56)
#loc95 = loc("/workspace/caption-remover-main/src/stages/inpaint/../../../.torch_compile_cache/q5/cq5jony7ax7qzw2tj6kzel3ykhottcsgfhy5s6vgxrpahbywgo6k.py":71:116)
#loc96 = loc("/workspace/caption-remover-main/src/stages/inpaint/../../../.torch_compile_cache/q5/cq5jony7ax7qzw2tj6kzel3ykhottcsgfhy5s6vgxrpahbywgo6k.py":72:40)
#loc97 = loc("/workspace/caption-remover-main/src/stages/inpaint/../../../.torch_compile_cache/q5/cq5jony7ax7qzw2tj6kzel3ykhottcsgfhy5s6vgxrpahbywgo6k.py":72:91)
#loc98 = loc("/workspace/caption-remover-main/src/stages/inpaint/../../../.torch_compile_cache/q5/cq5jony7ax7qzw2tj6kzel3ykhottcsgfhy5s6vgxrpahbywgo6k.py":73:91)
#loc99 = loc("/workspace/caption-remover-main/src/stages/inpaint/../../../.torch_compile_cache/q5/cq5jony7ax7qzw2tj6kzel3ykhottcsgfhy5s6vgxrpahbywgo6k.py":80:32)
#loc100 = loc("/workspace/caption-remover-main/src/stages/inpaint/../../../.torch_compile_cache/q5/cq5jony7ax7qzw2tj6kzel3ykhottcsgfhy5s6vgxrpahbywgo6k.py":81:24)
#loc101 = loc("/workspace/caption-remover-main/src/stages/inpaint/../../../.torch_compile_cache/q5/cq5jony7ax7qzw2tj6kzel3ykhottcsgfhy5s6vgxrpahbywgo6k.py":83:24)
#loc102 = loc("/workspace/caption-remover-main/src/stages/inpaint/../../../.torch_compile_cache/q5/cq5jony7ax7qzw2tj6kzel3ykhottcsgfhy5s6vgxrpahbywgo6k.py":85:24)
#loc103 = loc("/workspace/caption-remover-main/src/stages/inpaint/../../../.torch_compile_cache/q5/cq5jony7ax7qzw2tj6kzel3ykhottcsgfhy5s6vgxrpahbywgo6k.py":87:53)
#loc104 = loc("/workspace/caption-remover-main/src/stages/inpaint/../../../.torch_compile_cache/q5/cq5jony7ax7qzw2tj6kzel3ykhottcsgfhy5s6vgxrpahbywgo6k.py":67:4)
#loc105 = loc(callsite(#loc2 at #loc3))
#loc106 = loc(callsite(#loc5 at #loc6))
#loc107 = loc(callsite(#loc55 at #loc6))
#loc108 = loc(callsite(#loc56 at #loc6))
#loc109 = loc(callsite(#loc57 at #loc6))
#loc110 = loc(callsite(#loc58 at #loc6))
#loc111 = loc(callsite(#loc59 at #loc6))
#loc112 = loc(callsite(#loc60 at #loc6))
#loc113 = loc(callsite(#loc61 at #loc6))
#loc114 = loc(callsite(#loc62 at #loc6))
#loc115 = loc(callsite(#loc63 at #loc6))
#loc116 = loc(callsite(#loc3 at #loc4))
#loc117 = loc(callsite(#loc70 at #loc3))
#loc118 = loc(callsite(#loc71 at #loc3))
#loc119 = loc(callsite(#loc72 at #loc3))
#loc120 = loc(callsite(#loc73 at #loc3))
#loc121 = loc(callsite(#loc74 at #loc3))
#loc122 = loc(callsite(#loc75 at #loc3))
#loc123 = loc(callsite(#loc76 at #loc3))
#loc124 = loc(callsite(#loc77 at #loc3))
#loc125 = loc(callsite(#loc78 at #loc3))
#loc126 = loc(callsite(#loc79 at #loc3))
#loc127 = loc(callsite(#loc80 at #loc3))
#loc128 = loc(callsite(#loc105 at #loc4))
#loc129 = loc(callsite(#loc117 at #loc4))
#loc130 = loc(callsite(#loc118 at #loc4))
#loc131 = loc(callsite(#loc119 at #loc4))
#loc132 = loc(callsite(#loc120 at #loc4))
#loc133 = loc(callsite(#loc121 at #loc4))
#loc134 = loc(callsite(#loc122 at #loc4))
#loc135 = loc(callsite(#loc123 at #loc4))
#loc136 = loc(callsite(#loc124 at #loc4))
#loc137 = loc(callsite(#loc125 at #loc4))
#loc138 = loc(callsite(#loc126 at #loc4))
#loc139 = loc(callsite(#loc127 at #loc4))
