#loc = loc("/workspace/caption-remover-main/src/stages/inpaint/../../../.torch_compile_cache/z4/cz4ut5dpw33fzyiskj74q5y7sovq6n7udu2g2a775depjuv77sir.py":20:0)
module {
  tt.func public @triton__0d1d2d3de(%arg0: !tt.ptr<f16, 1> {tt.divisibility = 16 : i32} loc("/workspace/caption-remover-main/src/stages/inpaint/../../../.torch_compile_cache/z4/cz4ut5dpw33fzyiskj74q5y7sovq6n7udu2g2a775depjuv77sir.py":20:0), %arg1: !tt.ptr<f16, 1> {tt.divisibility = 16 : i32} loc("/workspace/caption-remover-main/src/stages/inpaint/../../../.torch_compile_cache/z4/cz4ut5dpw33fzyiskj74q5y7sovq6n7udu2g2a775depjuv77sir.py":20:0), %arg2: !tt.ptr<f16, 1> {tt.divisibility = 16 : i32} loc("/workspace/caption-remover-main/src/stages/inpaint/../../../.torch_compile_cache/z4/cz4ut5dpw33fzyiskj74q5y7sovq6n7udu2g2a775depjuv77sir.py":20:0), %arg3: i32 {tt.divisibility = 16 : i32, tt.max_divisibility = 16 : i32} loc("/workspace/caption-remover-main/src/stages/inpaint/../../../.torch_compile_cache/z4/cz4ut5dpw33fzyiskj74q5y7sovq6n7udu2g2a775depjuv77sir.py":20:0)) attributes {noinline = false} {
    %cst = arith.constant dense<640> : tensor<1024xi32> loc(#loc1)
    %c1024_i32 = arith.constant 1024 : i32 loc(#loc2)
    %0 = tt.get_program_id x : i32 loc(#loc3)
    %1 = arith.muli %0, %c1024_i32 : i32 loc(#loc2)
    %2 = tt.make_range {end = 1024 : i32, start = 0 : i32} : tensor<1024xi32> loc(#loc4)
    %3 = tt.splat %1 : (i32) -> tensor<1024xi32> loc(#loc5)
    %4 = arith.addi %3, %2 : tensor<1024xi32> loc(#loc5)
    %5 = tt.splat %arg3 : (i32) -> tensor<1024xi32> loc(#loc6)
    %6 = arith.cmpi slt, %4, %5 : tensor<1024xi32> loc(#loc6)
    %7 = arith.remsi %4, %cst : tensor<1024xi32> loc(#loc1)
    %8 = tt.splat %arg0 : (!tt.ptr<f16, 1>) -> tensor<1024x!tt.ptr<f16, 1>> loc(#loc7)
    %9 = tt.addptr %8, %4 : tensor<1024x!tt.ptr<f16, 1>>, tensor<1024xi32> loc(#loc7)
    %10 = tt.load %9, %6 {cache = 1 : i32, evict = 1 : i32, isVolatile = false} : tensor<1024xf16> loc(#loc8)
    %11 = arith.extf %10 : tensor<1024xf16> to tensor<1024xf32> loc(#loc9)
    %12 = tt.splat %arg1 : (!tt.ptr<f16, 1>) -> tensor<1024x!tt.ptr<f16, 1>> loc(#loc10)
    %13 = tt.addptr %12, %7 : tensor<1024x!tt.ptr<f16, 1>>, tensor<1024xi32> loc(#loc10)
    %14 = tt.load %13, %6 {cache = 1 : i32, evict = 3 : i32, isVolatile = false} : tensor<1024xf16> loc(#loc11)
    %15 = arith.extf %14 : tensor<1024xf16> to tensor<1024xf32> loc(#loc12)
    %16 = tt.splat %arg2 : (!tt.ptr<f16, 1>) -> tensor<1024x!tt.ptr<f16, 1>> loc(#loc13)
    %17 = tt.addptr %16, %4 : tensor<1024x!tt.ptr<f16, 1>>, tensor<1024xi32> loc(#loc13)
    %18 = tt.load %17, %6 {cache = 1 : i32, evict = 1 : i32, isVolatile = false} : tensor<1024xf16> loc(#loc14)
    %19 = arith.extf %18 : tensor<1024xf16> to tensor<1024xf32> loc(#loc15)
    %20 = arith.addf %11, %15 : tensor<1024xf32> loc(#loc16)
    %21 = arith.addf %20, %19 : tensor<1024xf32> loc(#loc17)
    %22 = arith.truncf %21 : tensor<1024xf32> to tensor<1024xf16> loc(#loc18)
    tt.store %9, %22, %6 {cache = 1 : i32, evict = 1 : i32} : tensor<1024xf16> loc(#loc18)
    tt.return loc(#loc19)
  } loc(#loc)
} loc(#loc)
#loc1 = loc("/workspace/caption-remover-main/src/stages/inpaint/../../../.torch_compile_cache/z4/cz4ut5dpw33fzyiskj74q5y7sovq6n7udu2g2a775depjuv77sir.py":25:18)
#loc2 = loc("/workspace/caption-remover-main/src/stages/inpaint/../../../.torch_compile_cache/z4/cz4ut5dpw33fzyiskj74q5y7sovq6n7udu2g2a775depjuv77sir.py":21:33)
#loc3 = loc("/workspace/caption-remover-main/src/stages/inpaint/../../../.torch_compile_cache/z4/cz4ut5dpw33fzyiskj74q5y7sovq6n7udu2g2a775depjuv77sir.py":21:28)
#loc4 = loc("/workspace/caption-remover-main/src/stages/inpaint/../../../.torch_compile_cache/z4/cz4ut5dpw33fzyiskj74q5y7sovq6n7udu2g2a775depjuv77sir.py":22:36)
#loc5 = loc("/workspace/caption-remover-main/src/stages/inpaint/../../../.torch_compile_cache/z4/cz4ut5dpw33fzyiskj74q5y7sovq6n7udu2g2a775depjuv77sir.py":22:23)
#loc6 = loc("/workspace/caption-remover-main/src/stages/inpaint/../../../.torch_compile_cache/z4/cz4ut5dpw33fzyiskj74q5y7sovq6n7udu2g2a775depjuv77sir.py":23:21)
#loc7 = loc("/workspace/caption-remover-main/src/stages/inpaint/../../../.torch_compile_cache/z4/cz4ut5dpw33fzyiskj74q5y7sovq6n7udu2g2a775depjuv77sir.py":26:34)
#loc8 = loc("/workspace/caption-remover-main/src/stages/inpaint/../../../.torch_compile_cache/z4/cz4ut5dpw33fzyiskj74q5y7sovq6n7udu2g2a775depjuv77sir.py":26:39)
#loc9 = loc("/workspace/caption-remover-main/src/stages/inpaint/../../../.torch_compile_cache/z4/cz4ut5dpw33fzyiskj74q5y7sovq6n7udu2g2a775depjuv77sir.py":26:49)
#loc10 = loc("/workspace/caption-remover-main/src/stages/inpaint/../../../.torch_compile_cache/z4/cz4ut5dpw33fzyiskj74q5y7sovq6n7udu2g2a775depjuv77sir.py":27:30)
#loc11 = loc("/workspace/caption-remover-main/src/stages/inpaint/../../../.torch_compile_cache/z4/cz4ut5dpw33fzyiskj74q5y7sovq6n7udu2g2a775depjuv77sir.py":27:35)
#loc12 = loc("/workspace/caption-remover-main/src/stages/inpaint/../../../.torch_compile_cache/z4/cz4ut5dpw33fzyiskj74q5y7sovq6n7udu2g2a775depjuv77sir.py":27:75)
#loc13 = loc("/workspace/caption-remover-main/src/stages/inpaint/../../../.torch_compile_cache/z4/cz4ut5dpw33fzyiskj74q5y7sovq6n7udu2g2a775depjuv77sir.py":28:30)
#loc14 = loc("/workspace/caption-remover-main/src/stages/inpaint/../../../.torch_compile_cache/z4/cz4ut5dpw33fzyiskj74q5y7sovq6n7udu2g2a775depjuv77sir.py":28:35)
#loc15 = loc("/workspace/caption-remover-main/src/stages/inpaint/../../../.torch_compile_cache/z4/cz4ut5dpw33fzyiskj74q5y7sovq6n7udu2g2a775depjuv77sir.py":28:45)
#loc16 = loc("/workspace/caption-remover-main/src/stages/inpaint/../../../.torch_compile_cache/z4/cz4ut5dpw33fzyiskj74q5y7sovq6n7udu2g2a775depjuv77sir.py":29:18)
#loc17 = loc("/workspace/caption-remover-main/src/stages/inpaint/../../../.torch_compile_cache/z4/cz4ut5dpw33fzyiskj74q5y7sovq6n7udu2g2a775depjuv77sir.py":30:18)
#loc18 = loc("/workspace/caption-remover-main/src/stages/inpaint/../../../.torch_compile_cache/z4/cz4ut5dpw33fzyiskj74q5y7sovq6n7udu2g2a775depjuv77sir.py":31:39)
#loc19 = loc("/workspace/caption-remover-main/src/stages/inpaint/../../../.torch_compile_cache/z4/cz4ut5dpw33fzyiskj74q5y7sovq6n7udu2g2a775depjuv77sir.py":31:4)
