#loc = loc("/workspace/caption-remover-main/src/stages/inpaint/../../../.torch_compile_cache/se/cse7kba7noqxyyd4mtzoh5yib5tpg6bmwnegjutcpjdjgbhtsl3v.py":20:0)
module {
  tt.func public @triton__0d1d2de3(%arg0: !tt.ptr<f16, 1> {tt.divisibility = 16 : i32} loc("/workspace/caption-remover-main/src/stages/inpaint/../../../.torch_compile_cache/se/cse7kba7noqxyyd4mtzoh5yib5tpg6bmwnegjutcpjdjgbhtsl3v.py":20:0), %arg1: !tt.ptr<f16, 1> {tt.divisibility = 16 : i32} loc("/workspace/caption-remover-main/src/stages/inpaint/../../../.torch_compile_cache/se/cse7kba7noqxyyd4mtzoh5yib5tpg6bmwnegjutcpjdjgbhtsl3v.py":20:0), %arg2: i32 {tt.divisibility = 16 : i32, tt.max_divisibility = 16 : i32} loc("/workspace/caption-remover-main/src/stages/inpaint/../../../.torch_compile_cache/se/cse7kba7noqxyyd4mtzoh5yib5tpg6bmwnegjutcpjdjgbhtsl3v.py":20:0), %arg3: i32 loc("/workspace/caption-remover-main/src/stages/inpaint/../../../.torch_compile_cache/se/cse7kba7noqxyyd4mtzoh5yib5tpg6bmwnegjutcpjdjgbhtsl3v.py":20:0)) attributes {noinline = false} {
    %cst = arith.constant dense<2880> : tensor<1x64xi32> loc(#loc1)
    %cst_0 = arith.constant dense<320> : tensor<16x1xi32> loc(#loc2)
    %cst_1 = arith.constant dense<9> : tensor<1x64xi32> loc(#loc3)
    %cst_2 = arith.constant dense<320> : tensor<1x64xi32> loc(#loc4)
    %cst_3 = arith.constant dense<9> : tensor<16x1xi32> loc(#loc5)
    %c16_i32 = arith.constant 16 : i32 loc(#loc6)
    %c64_i32 = arith.constant 64 : i32 loc(#loc7)
    %c1_i32 = arith.constant 1 : i32 loc(#loc8)
    %0 = tt.get_program_id y : i32 loc(#loc9)
    %1 = tt.get_program_id z : i32 loc(#loc10)
    %2 = arith.addi %1, %c1_i32 : i32 loc(#loc8)
    %3 = arith.muli %0, %2 : i32 loc(#loc11)
    %4 = arith.muli %3, %c64_i32 : i32 loc(#loc7)
    %5 = tt.make_range {end = 64 : i32, start = 0 : i32} : tensor<64xi32> loc(#loc12)
    %6 = tt.expand_dims %5 {axis = 0 : i32} : (tensor<64xi32>) -> tensor<1x64xi32> loc(#loc13)
    %7 = tt.splat %4 : (i32) -> tensor<1x64xi32> loc(#loc14)
    %8 = arith.addi %7, %6 : tensor<1x64xi32> loc(#loc14)
    %9 = tt.get_program_id x : i32 loc(#loc15)
    %10 = arith.muli %9, %c16_i32 : i32 loc(#loc6)
    %11 = tt.make_range {end = 16 : i32, start = 0 : i32} : tensor<16xi32> loc(#loc16)
    %12 = tt.expand_dims %11 {axis = 1 : i32} : (tensor<16xi32>) -> tensor<16x1xi32> loc(#loc17)
    %13 = tt.splat %10 : (i32) -> tensor<16x1xi32> loc(#loc18)
    %14 = arith.addi %13, %12 : tensor<16x1xi32> loc(#loc18)
    %15 = arith.cmpi slt, %14, %cst_3 : tensor<16x1xi32> loc(#loc5)
    %16 = arith.remsi %8, %cst_2 : tensor<1x64xi32> loc(#loc4)
    %17 = arith.divsi %8, %cst_2 : tensor<1x64xi32> loc(#loc19)
    %18 = arith.muli %8, %cst_1 : tensor<1x64xi32> loc(#loc3)
    %19 = tt.broadcast %14 : (tensor<16x1xi32>) -> tensor<16x64xi32> loc(#loc20)
    %20 = tt.broadcast %18 : (tensor<1x64xi32>) -> tensor<16x64xi32> loc(#loc20)
    %21 = arith.addi %19, %20 : tensor<16x64xi32> loc(#loc20)
    %22 = tt.splat %arg0 : (!tt.ptr<f16, 1>) -> tensor<16x64x!tt.ptr<f16, 1>> loc(#loc21)
    %23 = tt.addptr %22, %21 : tensor<16x64x!tt.ptr<f16, 1>>, tensor<16x64xi32> loc(#loc21)
    %24 = tt.broadcast %15 : (tensor<16x1xi1>) -> tensor<16x64xi1> loc(#loc22)
    %25 = tt.load %23, %24 {cache = 1 : i32, evict = 3 : i32, isVolatile = false} : tensor<16x64xf16> loc(#loc22)
    %26 = arith.extf %25 : tensor<16x64xf16> to tensor<16x64xf32> loc(#loc23)
    %27 = arith.muli %14, %cst_0 : tensor<16x1xi32> loc(#loc2)
    %28 = tt.broadcast %16 : (tensor<1x64xi32>) -> tensor<16x64xi32> loc(#loc24)
    %29 = tt.broadcast %27 : (tensor<16x1xi32>) -> tensor<16x64xi32> loc(#loc24)
    %30 = arith.addi %28, %29 : tensor<16x64xi32> loc(#loc24)
    %31 = arith.muli %17, %cst : tensor<1x64xi32> loc(#loc1)
    %32 = tt.broadcast %31 : (tensor<1x64xi32>) -> tensor<16x64xi32> loc(#loc25)
    %33 = arith.addi %30, %32 : tensor<16x64xi32> loc(#loc25)
    %34 = tt.splat %arg1 : (!tt.ptr<f16, 1>) -> tensor<16x64x!tt.ptr<f16, 1>> loc(#loc26)
    %35 = tt.addptr %34, %33 : tensor<16x64x!tt.ptr<f16, 1>>, tensor<16x64xi32> loc(#loc26)
    %36 = arith.truncf %26 : tensor<16x64xf32> to tensor<16x64xf16> loc(#loc27)
    tt.store %35, %36, %24 {cache = 1 : i32, evict = 1 : i32} : tensor<16x64xf16> loc(#loc27)
    tt.return loc(#loc28)
  } loc(#loc)
} loc(#loc)
#loc1 = loc("/workspace/caption-remover-main/src/stages/inpaint/../../../.torch_compile_cache/se/cse7kba7noqxyyd4mtzoh5yib5tpg6bmwnegjutcpjdjgbhtsl3v.py":34:47)
#loc2 = loc("/workspace/caption-remover-main/src/stages/inpaint/../../../.torch_compile_cache/se/cse7kba7noqxyyd4mtzoh5yib5tpg6bmwnegjutcpjdjgbhtsl3v.py":34:35)
#loc3 = loc("/workspace/caption-remover-main/src/stages/inpaint/../../../.torch_compile_cache/se/cse7kba7noqxyyd4mtzoh5yib5tpg6bmwnegjutcpjdjgbhtsl3v.py":33:38)
#loc4 = loc("/workspace/caption-remover-main/src/stages/inpaint/../../../.torch_compile_cache/se/cse7kba7noqxyyd4mtzoh5yib5tpg6bmwnegjutcpjdjgbhtsl3v.py":31:18)
#loc5 = loc("/workspace/caption-remover-main/src/stages/inpaint/../../../.torch_compile_cache/se/cse7kba7noqxyyd4mtzoh5yib5tpg6bmwnegjutcpjdjgbhtsl3v.py":28:21)
#loc6 = loc("/workspace/caption-remover-main/src/stages/inpaint/../../../.torch_compile_cache/se/cse7kba7noqxyyd4mtzoh5yib5tpg6bmwnegjutcpjdjgbhtsl3v.py":26:33)
#loc7 = loc("/workspace/caption-remover-main/src/stages/inpaint/../../../.torch_compile_cache/se/cse7kba7noqxyyd4mtzoh5yib5tpg6bmwnegjutcpjdjgbhtsl3v.py":23:58)
#loc8 = loc("/workspace/caption-remover-main/src/stages/inpaint/../../../.torch_compile_cache/se/cse7kba7noqxyyd4mtzoh5yib5tpg6bmwnegjutcpjdjgbhtsl3v.py":23:53)
#loc9 = loc("/workspace/caption-remover-main/src/stages/inpaint/../../../.torch_compile_cache/se/cse7kba7noqxyyd4mtzoh5yib5tpg6bmwnegjutcpjdjgbhtsl3v.py":23:28)
#loc10 = loc("/workspace/caption-remover-main/src/stages/inpaint/../../../.torch_compile_cache/se/cse7kba7noqxyyd4mtzoh5yib5tpg6bmwnegjutcpjdjgbhtsl3v.py":23:48)
#loc11 = loc("/workspace/caption-remover-main/src/stages/inpaint/../../../.torch_compile_cache/se/cse7kba7noqxyyd4mtzoh5yib5tpg6bmwnegjutcpjdjgbhtsl3v.py":23:34)
#loc12 = loc("/workspace/caption-remover-main/src/stages/inpaint/../../../.torch_compile_cache/se/cse7kba7noqxyyd4mtzoh5yib5tpg6bmwnegjutcpjdjgbhtsl3v.py":24:36)
#loc13 = loc("/workspace/caption-remover-main/src/stages/inpaint/../../../.torch_compile_cache/se/cse7kba7noqxyyd4mtzoh5yib5tpg6bmwnegjutcpjdjgbhtsl3v.py":24:44)
#loc14 = loc("/workspace/caption-remover-main/src/stages/inpaint/../../../.torch_compile_cache/se/cse7kba7noqxyyd4mtzoh5yib5tpg6bmwnegjutcpjdjgbhtsl3v.py":24:23)
#loc15 = loc("/workspace/caption-remover-main/src/stages/inpaint/../../../.torch_compile_cache/se/cse7kba7noqxyyd4mtzoh5yib5tpg6bmwnegjutcpjdjgbhtsl3v.py":26:28)
#loc16 = loc("/workspace/caption-remover-main/src/stages/inpaint/../../../.torch_compile_cache/se/cse7kba7noqxyyd4mtzoh5yib5tpg6bmwnegjutcpjdjgbhtsl3v.py":27:36)
#loc17 = loc("/workspace/caption-remover-main/src/stages/inpaint/../../../.torch_compile_cache/se/cse7kba7noqxyyd4mtzoh5yib5tpg6bmwnegjutcpjdjgbhtsl3v.py":27:44)
#loc18 = loc("/workspace/caption-remover-main/src/stages/inpaint/../../../.torch_compile_cache/se/cse7kba7noqxyyd4mtzoh5yib5tpg6bmwnegjutcpjdjgbhtsl3v.py":27:23)
#loc19 = loc("/workspace/caption-remover-main/src/stages/inpaint/../../../.torch_compile_cache/se/cse7kba7noqxyyd4mtzoh5yib5tpg6bmwnegjutcpjdjgbhtsl3v.py":32:20)
#loc20 = loc("/workspace/caption-remover-main/src/stages/inpaint/../../../.torch_compile_cache/se/cse7kba7noqxyyd4mtzoh5yib5tpg6bmwnegjutcpjdjgbhtsl3v.py":33:36)
#loc21 = loc("/workspace/caption-remover-main/src/stages/inpaint/../../../.torch_compile_cache/se/cse7kba7noqxyyd4mtzoh5yib5tpg6bmwnegjutcpjdjgbhtsl3v.py":33:30)
#loc22 = loc("/workspace/caption-remover-main/src/stages/inpaint/../../../.torch_compile_cache/se/cse7kba7noqxyyd4mtzoh5yib5tpg6bmwnegjutcpjdjgbhtsl3v.py":33:44)
#loc23 = loc("/workspace/caption-remover-main/src/stages/inpaint/../../../.torch_compile_cache/se/cse7kba7noqxyyd4mtzoh5yib5tpg6bmwnegjutcpjdjgbhtsl3v.py":33:84)
#loc24 = loc("/workspace/caption-remover-main/src/stages/inpaint/../../../.torch_compile_cache/se/cse7kba7noqxyyd4mtzoh5yib5tpg6bmwnegjutcpjdjgbhtsl3v.py":34:31)
#loc25 = loc("/workspace/caption-remover-main/src/stages/inpaint/../../../.torch_compile_cache/se/cse7kba7noqxyyd4mtzoh5yib5tpg6bmwnegjutcpjdjgbhtsl3v.py":34:42)
#loc26 = loc("/workspace/caption-remover-main/src/stages/inpaint/../../../.torch_compile_cache/se/cse7kba7noqxyyd4mtzoh5yib5tpg6bmwnegjutcpjdjgbhtsl3v.py":34:25)
#loc27 = loc("/workspace/caption-remover-main/src/stages/inpaint/../../../.torch_compile_cache/se/cse7kba7noqxyyd4mtzoh5yib5tpg6bmwnegjutcpjdjgbhtsl3v.py":34:59)
#loc28 = loc("/workspace/caption-remover-main/src/stages/inpaint/../../../.torch_compile_cache/se/cse7kba7noqxyyd4mtzoh5yib5tpg6bmwnegjutcpjdjgbhtsl3v.py":34:4)
