#loc = loc("/workspace/caption-remover-main/src/stages/inpaint/../../../.torch_compile_cache/sk/csk7sky7updenqjdbzx7ydxndyawwpf4ezscboofbtfo46bzd6lg.py":20:0)
module {
  tt.func public @triton__0d1d2de(%arg0: !tt.ptr<f16, 1> {tt.divisibility = 16 : i32} loc("/workspace/caption-remover-main/src/stages/inpaint/../../../.torch_compile_cache/sk/csk7sky7updenqjdbzx7ydxndyawwpf4ezscboofbtfo46bzd6lg.py":20:0), %arg1: !tt.ptr<f16, 1> {tt.divisibility = 16 : i32} loc("/workspace/caption-remover-main/src/stages/inpaint/../../../.torch_compile_cache/sk/csk7sky7updenqjdbzx7ydxndyawwpf4ezscboofbtfo46bzd6lg.py":20:0), %arg2: i32 {tt.divisibility = 16 : i32, tt.max_divisibility = 16 : i32} loc("/workspace/caption-remover-main/src/stages/inpaint/../../../.torch_compile_cache/sk/csk7sky7updenqjdbzx7ydxndyawwpf4ezscboofbtfo46bzd6lg.py":20:0)) attributes {noinline = false} {
    %cst = arith.constant dense<1.250000e-01> : tensor<512xf32> loc(#loc1)
    %cst_0 = arith.constant dense<19008000> : tensor<512xi32> loc(#loc2)
    %c512_i32 = arith.constant 512 : i32 loc(#loc3)
    %0 = tt.get_program_id x : i32 loc(#loc4)
    %1 = arith.muli %0, %c512_i32 : i32 loc(#loc3)
    %2 = tt.make_range {end = 512 : i32, start = 0 : i32} : tensor<512xi32> loc(#loc5)
    %3 = tt.splat %1 : (i32) -> tensor<512xi32> loc(#loc6)
    %4 = arith.addi %3, %2 : tensor<512xi32> loc(#loc6)
    %5 = arith.cmpi slt, %4, %cst_0 : tensor<512xi32> loc(#loc2)
    %6 = tt.splat %arg0 : (!tt.ptr<f16, 1>) -> tensor<512x!tt.ptr<f16, 1>> loc(#loc7)
    %7 = tt.addptr %6, %4 : tensor<512x!tt.ptr<f16, 1>>, tensor<512xi32> loc(#loc7)
    %8 = tt.load %7, %5 {cache = 1 : i32, evict = 1 : i32, isVolatile = false} : tensor<512xf16> loc(#loc8)
    %9 = arith.extf %8 : tensor<512xf16> to tensor<512xf32> loc(#loc9)
    %10 = tt.splat %arg1 : (!tt.ptr<f16, 1>) -> tensor<512x!tt.ptr<f16, 1>> loc(#loc10)
    %11 = tt.addptr %10, %4 : tensor<512x!tt.ptr<f16, 1>>, tensor<512xi32> loc(#loc10)
    %12 = tt.load %11, %5 {cache = 1 : i32, evict = 1 : i32, isVolatile = false} : tensor<512xf16> loc(#loc11)
    %13 = arith.extf %12 : tensor<512xf16> to tensor<512xf32> loc(#loc12)
    %14 = arith.mulf %13, %cst : tensor<512xf32> loc(#loc1)
    %15 = arith.addf %9, %14 : tensor<512xf32> loc(#loc13)
    %16 = arith.truncf %15 : tensor<512xf32> to tensor<512xf16> loc(#loc14)
    tt.store %7, %16, %5 {cache = 1 : i32, evict = 1 : i32} : tensor<512xf16> loc(#loc14)
    tt.return loc(#loc15)
  } loc(#loc)
} loc(#loc)
#loc1 = loc("/workspace/caption-remover-main/src/stages/inpaint/../../../.torch_compile_cache/sk/csk7sky7updenqjdbzx7ydxndyawwpf4ezscboofbtfo46bzd6lg.py":29:18)
#loc2 = loc("/workspace/caption-remover-main/src/stages/inpaint/../../../.torch_compile_cache/sk/csk7sky7updenqjdbzx7ydxndyawwpf4ezscboofbtfo46bzd6lg.py":24:21)
#loc3 = loc("/workspace/caption-remover-main/src/stages/inpaint/../../../.torch_compile_cache/sk/csk7sky7updenqjdbzx7ydxndyawwpf4ezscboofbtfo46bzd6lg.py":22:33)
#loc4 = loc("/workspace/caption-remover-main/src/stages/inpaint/../../../.torch_compile_cache/sk/csk7sky7updenqjdbzx7ydxndyawwpf4ezscboofbtfo46bzd6lg.py":22:28)
#loc5 = loc("/workspace/caption-remover-main/src/stages/inpaint/../../../.torch_compile_cache/sk/csk7sky7updenqjdbzx7ydxndyawwpf4ezscboofbtfo46bzd6lg.py":23:36)
#loc6 = loc("/workspace/caption-remover-main/src/stages/inpaint/../../../.torch_compile_cache/sk/csk7sky7updenqjdbzx7ydxndyawwpf4ezscboofbtfo46bzd6lg.py":23:23)
#loc7 = loc("/workspace/caption-remover-main/src/stages/inpaint/../../../.torch_compile_cache/sk/csk7sky7updenqjdbzx7ydxndyawwpf4ezscboofbtfo46bzd6lg.py":26:34)
#loc8 = loc("/workspace/caption-remover-main/src/stages/inpaint/../../../.torch_compile_cache/sk/csk7sky7updenqjdbzx7ydxndyawwpf4ezscboofbtfo46bzd6lg.py":26:39)
#loc9 = loc("/workspace/caption-remover-main/src/stages/inpaint/../../../.torch_compile_cache/sk/csk7sky7updenqjdbzx7ydxndyawwpf4ezscboofbtfo46bzd6lg.py":26:49)
#loc10 = loc("/workspace/caption-remover-main/src/stages/inpaint/../../../.torch_compile_cache/sk/csk7sky7updenqjdbzx7ydxndyawwpf4ezscboofbtfo46bzd6lg.py":27:30)
#loc11 = loc("/workspace/caption-remover-main/src/stages/inpaint/../../../.torch_compile_cache/sk/csk7sky7updenqjdbzx7ydxndyawwpf4ezscboofbtfo46bzd6lg.py":27:35)
#loc12 = loc("/workspace/caption-remover-main/src/stages/inpaint/../../../.torch_compile_cache/sk/csk7sky7updenqjdbzx7ydxndyawwpf4ezscboofbtfo46bzd6lg.py":27:45)
#loc13 = loc("/workspace/caption-remover-main/src/stages/inpaint/../../../.torch_compile_cache/sk/csk7sky7updenqjdbzx7ydxndyawwpf4ezscboofbtfo46bzd6lg.py":30:18)
#loc14 = loc("/workspace/caption-remover-main/src/stages/inpaint/../../../.torch_compile_cache/sk/csk7sky7updenqjdbzx7ydxndyawwpf4ezscboofbtfo46bzd6lg.py":31:39)
#loc15 = loc("/workspace/caption-remover-main/src/stages/inpaint/../../../.torch_compile_cache/sk/csk7sky7updenqjdbzx7ydxndyawwpf4ezscboofbtfo46bzd6lg.py":31:4)
