#loc = loc("/workspace/caption-remover-main/src/stages/inpaint/../../../.torch_compile_cache/7d/c7dsumkjfchobmyjofmdmauevjopqud3vgzz2db5tzvndwi7zcua.py":20:0)
module {
  tt.func public @triton__0d1d2d3de4(%arg0: !tt.ptr<f16, 1> {tt.divisibility = 16 : i32} loc("/workspace/caption-remover-main/src/stages/inpaint/../../../.torch_compile_cache/7d/c7dsumkjfchobmyjofmdmauevjopqud3vgzz2db5tzvndwi7zcua.py":20:0), %arg1: !tt.ptr<f16, 1> {tt.divisibility = 16 : i32} loc("/workspace/caption-remover-main/src/stages/inpaint/../../../.torch_compile_cache/7d/c7dsumkjfchobmyjofmdmauevjopqud3vgzz2db5tzvndwi7zcua.py":20:0), %arg2: !tt.ptr<f16, 1> {tt.divisibility = 16 : i32} loc("/workspace/caption-remover-main/src/stages/inpaint/../../../.torch_compile_cache/7d/c7dsumkjfchobmyjofmdmauevjopqud3vgzz2db5tzvndwi7zcua.py":20:0), %arg3: i32 {tt.divisibility = 16 : i32, tt.max_divisibility = 16 : i32} loc("/workspace/caption-remover-main/src/stages/inpaint/../../../.torch_compile_cache/7d/c7dsumkjfchobmyjofmdmauevjopqud3vgzz2db5tzvndwi7zcua.py":20:0), %arg4: i32 loc("/workspace/caption-remover-main/src/stages/inpaint/../../../.torch_compile_cache/7d/c7dsumkjfchobmyjofmdmauevjopqud3vgzz2db5tzvndwi7zcua.py":20:0)) attributes {noinline = false} {
    %c7040_i32 = arith.constant 7040 : i32 loc(#loc1)
    %c320_i32 = arith.constant 320 : i32 loc(#loc2)
    %c864000_i32 = arith.constant 864000 : i32 loc(#loc3)
    %c2700_i32 = arith.constant 2700 : i32 loc(#loc4)
    %cst = arith.constant dense<320> : tensor<1024x1xi32> loc(#loc5)
    %cst_0 = arith.constant dense<2700> : tensor<1024x1xi32> loc(#loc6)
    %c1024_i32 = arith.constant 1024 : i32 loc(#loc7)
    %c1_i32 = arith.constant 1 : i32 loc(#loc8)
    %0 = tt.get_program_id y : i32 loc(#loc9)
    %1 = tt.get_program_id z : i32 loc(#loc10)
    %2 = arith.addi %1, %c1_i32 : i32 loc(#loc8)
    %3 = arith.muli %0, %2 : i32 loc(#loc11)
    %4 = arith.cmpi slt, %3, %c7040_i32 : i32 loc(#loc1)
    %5 = tt.get_program_id x : i32 loc(#loc12)
    %6 = arith.muli %5, %c1024_i32 : i32 loc(#loc7)
    %7 = tt.make_range {end = 1024 : i32, start = 0 : i32} : tensor<1024xi32> loc(#loc13)
    %8 = tt.expand_dims %7 {axis = 1 : i32} : (tensor<1024xi32>) -> tensor<1024x1xi32> loc(#loc14)
    %9 = tt.splat %6 : (i32) -> tensor<1024x1xi32> loc(#loc15)
    %10 = arith.addi %9, %8 : tensor<1024x1xi32> loc(#loc15)
    %11 = arith.cmpi slt, %10, %cst_0 : tensor<1024x1xi32> loc(#loc6)
    %12 = arith.remsi %3, %c320_i32 : i32 loc(#loc16)
    %13 = arith.divsi %3, %c320_i32 : i32 loc(#loc2)
    %14 = arith.muli %3, %c2700_i32 : i32 loc(#loc4)
    %15 = tt.splat %14 : (i32) -> tensor<1024x1xi32> loc(#loc17)
    %16 = arith.addi %10, %15 : tensor<1024x1xi32> loc(#loc17)
    %17 = tt.splat %arg0 : (!tt.ptr<f16, 1>) -> tensor<1024x1x!tt.ptr<f16, 1>> loc(#loc18)
    %18 = tt.addptr %17, %16 : tensor<1024x1x!tt.ptr<f16, 1>>, tensor<1024x1xi32> loc(#loc18)
    %19 = tt.splat %4 : (i1) -> tensor<1024x1xi1> loc(#loc19)
    %20 = arith.andi %11, %19 : tensor<1024x1xi1> loc(#loc19)
    %21 = tt.load %18, %20 {cache = 1 : i32, evict = 3 : i32, isVolatile = false} : tensor<1024x1xf16> loc(#loc20)
    %22 = arith.extf %21 : tensor<1024x1xf16> to tensor<1024x1xf32> loc(#loc21)
    %23 = arith.muli %10, %cst : tensor<1024x1xi32> loc(#loc5)
    %24 = tt.splat %12 : (i32) -> tensor<1024x1xi32> loc(#loc22)
    %25 = arith.addi %24, %23 : tensor<1024x1xi32> loc(#loc22)
    %26 = arith.muli %13, %c864000_i32 : i32 loc(#loc3)
    %27 = tt.splat %26 : (i32) -> tensor<1024x1xi32> loc(#loc23)
    %28 = arith.addi %25, %27 : tensor<1024x1xi32> loc(#loc23)
    %29 = tt.splat %arg1 : (!tt.ptr<f16, 1>) -> tensor<1024x1x!tt.ptr<f16, 1>> loc(#loc24)
    %30 = tt.addptr %29, %28 : tensor<1024x1x!tt.ptr<f16, 1>>, tensor<1024x1xi32> loc(#loc24)
    %31 = arith.truncf %22 : tensor<1024x1xf32> to tensor<1024x1xf16> loc(#loc25)
    tt.store %30, %31, %20 {cache = 1 : i32, evict = 1 : i32} : tensor<1024x1xf16> loc(#loc25)
    %32 = tt.splat %arg2 : (!tt.ptr<f16, 1>) -> tensor<1024x1x!tt.ptr<f16, 1>> loc(#loc26)
    %33 = tt.addptr %32, %28 : tensor<1024x1x!tt.ptr<f16, 1>>, tensor<1024x1xi32> loc(#loc26)
    tt.store %33, %31, %20 {cache = 1 : i32, evict = 1 : i32} : tensor<1024x1xf16> loc(#loc27)
    tt.return loc(#loc28)
  } loc(#loc)
} loc(#loc)
#loc1 = loc("/workspace/caption-remover-main/src/stages/inpaint/../../../.torch_compile_cache/7d/c7dsumkjfchobmyjofmdmauevjopqud3vgzz2db5tzvndwi7zcua.py":25:21)
#loc2 = loc("/workspace/caption-remover-main/src/stages/inpaint/../../../.torch_compile_cache/7d/c7dsumkjfchobmyjofmdmauevjopqud3vgzz2db5tzvndwi7zcua.py":32:20)
#loc3 = loc("/workspace/caption-remover-main/src/stages/inpaint/../../../.torch_compile_cache/7d/c7dsumkjfchobmyjofmdmauevjopqud3vgzz2db5tzvndwi7zcua.py":34:49)
#loc4 = loc("/workspace/caption-remover-main/src/stages/inpaint/../../../.torch_compile_cache/7d/c7dsumkjfchobmyjofmdmauevjopqud3vgzz2db5tzvndwi7zcua.py":33:41)
#loc5 = loc("/workspace/caption-remover-main/src/stages/inpaint/../../../.torch_compile_cache/7d/c7dsumkjfchobmyjofmdmauevjopqud3vgzz2db5tzvndwi7zcua.py":34:35)
#loc6 = loc("/workspace/caption-remover-main/src/stages/inpaint/../../../.torch_compile_cache/7d/c7dsumkjfchobmyjofmdmauevjopqud3vgzz2db5tzvndwi7zcua.py":28:21)
#loc7 = loc("/workspace/caption-remover-main/src/stages/inpaint/../../../.torch_compile_cache/7d/c7dsumkjfchobmyjofmdmauevjopqud3vgzz2db5tzvndwi7zcua.py":26:33)
#loc8 = loc("/workspace/caption-remover-main/src/stages/inpaint/../../../.torch_compile_cache/7d/c7dsumkjfchobmyjofmdmauevjopqud3vgzz2db5tzvndwi7zcua.py":23:53)
#loc9 = loc("/workspace/caption-remover-main/src/stages/inpaint/../../../.torch_compile_cache/7d/c7dsumkjfchobmyjofmdmauevjopqud3vgzz2db5tzvndwi7zcua.py":23:28)
#loc10 = loc("/workspace/caption-remover-main/src/stages/inpaint/../../../.torch_compile_cache/7d/c7dsumkjfchobmyjofmdmauevjopqud3vgzz2db5tzvndwi7zcua.py":23:48)
#loc11 = loc("/workspace/caption-remover-main/src/stages/inpaint/../../../.torch_compile_cache/7d/c7dsumkjfchobmyjofmdmauevjopqud3vgzz2db5tzvndwi7zcua.py":23:34)
#loc12 = loc("/workspace/caption-remover-main/src/stages/inpaint/../../../.torch_compile_cache/7d/c7dsumkjfchobmyjofmdmauevjopqud3vgzz2db5tzvndwi7zcua.py":26:28)
#loc13 = loc("/workspace/caption-remover-main/src/stages/inpaint/../../../.torch_compile_cache/7d/c7dsumkjfchobmyjofmdmauevjopqud3vgzz2db5tzvndwi7zcua.py":27:36)
#loc14 = loc("/workspace/caption-remover-main/src/stages/inpaint/../../../.torch_compile_cache/7d/c7dsumkjfchobmyjofmdmauevjopqud3vgzz2db5tzvndwi7zcua.py":27:44)
#loc15 = loc("/workspace/caption-remover-main/src/stages/inpaint/../../../.torch_compile_cache/7d/c7dsumkjfchobmyjofmdmauevjopqud3vgzz2db5tzvndwi7zcua.py":27:23)
#loc16 = loc("/workspace/caption-remover-main/src/stages/inpaint/../../../.torch_compile_cache/7d/c7dsumkjfchobmyjofmdmauevjopqud3vgzz2db5tzvndwi7zcua.py":31:18)
#loc17 = loc("/workspace/caption-remover-main/src/stages/inpaint/../../../.torch_compile_cache/7d/c7dsumkjfchobmyjofmdmauevjopqud3vgzz2db5tzvndwi7zcua.py":33:36)
#loc18 = loc("/workspace/caption-remover-main/src/stages/inpaint/../../../.torch_compile_cache/7d/c7dsumkjfchobmyjofmdmauevjopqud3vgzz2db5tzvndwi7zcua.py":33:30)
#loc19 = loc("/workspace/caption-remover-main/src/stages/inpaint/../../../.torch_compile_cache/7d/c7dsumkjfchobmyjofmdmauevjopqud3vgzz2db5tzvndwi7zcua.py":33:55)
#loc20 = loc("/workspace/caption-remover-main/src/stages/inpaint/../../../.torch_compile_cache/7d/c7dsumkjfchobmyjofmdmauevjopqud3vgzz2db5tzvndwi7zcua.py":33:47)
#loc21 = loc("/workspace/caption-remover-main/src/stages/inpaint/../../../.torch_compile_cache/7d/c7dsumkjfchobmyjofmdmauevjopqud3vgzz2db5tzvndwi7zcua.py":33:95)
#loc22 = loc("/workspace/caption-remover-main/src/stages/inpaint/../../../.torch_compile_cache/7d/c7dsumkjfchobmyjofmdmauevjopqud3vgzz2db5tzvndwi7zcua.py":34:31)
#loc23 = loc("/workspace/caption-remover-main/src/stages/inpaint/../../../.torch_compile_cache/7d/c7dsumkjfchobmyjofmdmauevjopqud3vgzz2db5tzvndwi7zcua.py":34:42)
#loc24 = loc("/workspace/caption-remover-main/src/stages/inpaint/../../../.torch_compile_cache/7d/c7dsumkjfchobmyjofmdmauevjopqud3vgzz2db5tzvndwi7zcua.py":34:25)
#loc25 = loc("/workspace/caption-remover-main/src/stages/inpaint/../../../.torch_compile_cache/7d/c7dsumkjfchobmyjofmdmauevjopqud3vgzz2db5tzvndwi7zcua.py":34:61)
#loc26 = loc("/workspace/caption-remover-main/src/stages/inpaint/../../../.torch_compile_cache/7d/c7dsumkjfchobmyjofmdmauevjopqud3vgzz2db5tzvndwi7zcua.py":35:25)
#loc27 = loc("/workspace/caption-remover-main/src/stages/inpaint/../../../.torch_compile_cache/7d/c7dsumkjfchobmyjofmdmauevjopqud3vgzz2db5tzvndwi7zcua.py":35:61)
#loc28 = loc("/workspace/caption-remover-main/src/stages/inpaint/../../../.torch_compile_cache/7d/c7dsumkjfchobmyjofmdmauevjopqud3vgzz2db5tzvndwi7zcua.py":35:4)
