#loc = loc("/workspace/caption-remover-main/src/stages/inpaint/../../../.torch_compile_cache/rs/crscx4tyqoy3tqi4z7zk5ktv6gihtkkkznt6kg2j3pyy3rhc2civ.py":20:0)
module {
  tt.func public @triton__0d1d2de(%arg0: !tt.ptr<f16, 1> {tt.divisibility = 16 : i32} loc("/workspace/caption-remover-main/src/stages/inpaint/../../../.torch_compile_cache/rs/crscx4tyqoy3tqi4z7zk5ktv6gihtkkkznt6kg2j3pyy3rhc2civ.py":20:0), %arg1: !tt.ptr<f16, 1> {tt.divisibility = 16 : i32} loc("/workspace/caption-remover-main/src/stages/inpaint/../../../.torch_compile_cache/rs/crscx4tyqoy3tqi4z7zk5ktv6gihtkkkznt6kg2j3pyy3rhc2civ.py":20:0), %arg2: i32 {tt.divisibility = 16 : i32, tt.max_divisibility = 16 : i32} loc("/workspace/caption-remover-main/src/stages/inpaint/../../../.torch_compile_cache/rs/crscx4tyqoy3tqi4z7zk5ktv6gihtkkkznt6kg2j3pyy3rhc2civ.py":20:0)) attributes {noinline = false} {
    %cst = arith.constant dense<0.000000e+00> : tensor<256xf32> loc(#loc18)
    %cst_0 = arith.constant dense<1.000000e+00> : tensor<256xf32> loc(#loc19)
    %cst_1 = arith.constant dense<28160> : tensor<256xi32> loc(#loc4)
    %c256_i32 = arith.constant 256 : i32 loc(#loc5)
    %0 = tt.get_program_id x : i32 loc(#loc6)
    %1 = arith.muli %0, %c256_i32 : i32 loc(#loc5)
    %2 = tt.make_range {end = 256 : i32, start = 0 : i32} : tensor<256xi32> loc(#loc7)
    %3 = tt.splat %1 : (i32) -> tensor<256xi32> loc(#loc8)
    %4 = arith.addi %3, %2 : tensor<256xi32> loc(#loc8)
    %5 = arith.cmpi slt, %4, %cst_1 : tensor<256xi32> loc(#loc4)
    %6 = tt.splat %arg0 : (!tt.ptr<f16, 1>) -> tensor<256x!tt.ptr<f16, 1>> loc(#loc9)
    %7 = tt.addptr %6, %4 : tensor<256x!tt.ptr<f16, 1>>, tensor<256xi32> loc(#loc9)
    %8 = tt.load %7, %5 {cache = 1 : i32, evict = 1 : i32, isVolatile = false} : tensor<256xf16> loc(#loc10)
    %9 = arith.extf %8 : tensor<256xf16> to tensor<256xf32> loc(#loc11)
    %10 = arith.subf %cst, %9 : tensor<256xf32> loc(#loc18)
    %11 = math.exp %10 : tensor<256xf32> loc(#loc20)
    %12 = arith.addf %11, %cst_0 : tensor<256xf32> loc(#loc19)
    %13 = arith.divf %cst_0, %12 : tensor<256xf32> loc(#loc21)
    %14 = arith.mulf %9, %13 : tensor<256xf32> loc(#loc14)
    %15 = tt.splat %arg1 : (!tt.ptr<f16, 1>) -> tensor<256x!tt.ptr<f16, 1>> loc(#loc15)
    %16 = tt.addptr %15, %4 : tensor<256x!tt.ptr<f16, 1>>, tensor<256xi32> loc(#loc15)
    %17 = arith.truncf %14 : tensor<256xf32> to tensor<256xf16> loc(#loc16)
    tt.store %16, %17, %5 {cache = 1 : i32, evict = 1 : i32} : tensor<256xf16> loc(#loc16)
    tt.return loc(#loc17)
  } loc(#loc)
} loc(#loc)
#loc1 = loc("/opt/venv/lib/python3.10/site-packages/triton/language/standard.py":27:30)
#loc2 = loc("/workspace/caption-remover-main/src/stages/inpaint/../../../.torch_compile_cache/rs/crscx4tyqoy3tqi4z7zk5ktv6gihtkkkznt6kg2j3pyy3rhc2civ.py":28:22)
#loc3 = loc("/opt/venv/lib/python3.10/site-packages/triton/language/standard.py":27:20)
#loc4 = loc("/workspace/caption-remover-main/src/stages/inpaint/../../../.torch_compile_cache/rs/crscx4tyqoy3tqi4z7zk5ktv6gihtkkkznt6kg2j3pyy3rhc2civ.py":24:21)
#loc5 = loc("/workspace/caption-remover-main/src/stages/inpaint/../../../.torch_compile_cache/rs/crscx4tyqoy3tqi4z7zk5ktv6gihtkkkznt6kg2j3pyy3rhc2civ.py":22:33)
#loc6 = loc("/workspace/caption-remover-main/src/stages/inpaint/../../../.torch_compile_cache/rs/crscx4tyqoy3tqi4z7zk5ktv6gihtkkkznt6kg2j3pyy3rhc2civ.py":22:28)
#loc7 = loc("/workspace/caption-remover-main/src/stages/inpaint/../../../.torch_compile_cache/rs/crscx4tyqoy3tqi4z7zk5ktv6gihtkkkznt6kg2j3pyy3rhc2civ.py":23:36)
#loc8 = loc("/workspace/caption-remover-main/src/stages/inpaint/../../../.torch_compile_cache/rs/crscx4tyqoy3tqi4z7zk5ktv6gihtkkkznt6kg2j3pyy3rhc2civ.py":23:23)
#loc9 = loc("/workspace/caption-remover-main/src/stages/inpaint/../../../.torch_compile_cache/rs/crscx4tyqoy3tqi4z7zk5ktv6gihtkkkznt6kg2j3pyy3rhc2civ.py":26:30)
#loc10 = loc("/workspace/caption-remover-main/src/stages/inpaint/../../../.torch_compile_cache/rs/crscx4tyqoy3tqi4z7zk5ktv6gihtkkkznt6kg2j3pyy3rhc2civ.py":26:35)
#loc11 = loc("/workspace/caption-remover-main/src/stages/inpaint/../../../.torch_compile_cache/rs/crscx4tyqoy3tqi4z7zk5ktv6gihtkkkznt6kg2j3pyy3rhc2civ.py":26:45)
#loc12 = loc("/opt/venv/lib/python3.10/site-packages/triton/language/standard.py":27:29)
#loc13 = loc("/opt/venv/lib/python3.10/site-packages/triton/language/standard.py":27:16)
#loc14 = loc("/workspace/caption-remover-main/src/stages/inpaint/../../../.torch_compile_cache/rs/crscx4tyqoy3tqi4z7zk5ktv6gihtkkkznt6kg2j3pyy3rhc2civ.py":29:18)
#loc15 = loc("/workspace/caption-remover-main/src/stages/inpaint/../../../.torch_compile_cache/rs/crscx4tyqoy3tqi4z7zk5ktv6gihtkkkznt6kg2j3pyy3rhc2civ.py":31:25)
#loc16 = loc("/workspace/caption-remover-main/src/stages/inpaint/../../../.torch_compile_cache/rs/crscx4tyqoy3tqi4z7zk5ktv6gihtkkkznt6kg2j3pyy3rhc2civ.py":31:36)
#loc17 = loc("/workspace/caption-remover-main/src/stages/inpaint/../../../.torch_compile_cache/rs/crscx4tyqoy3tqi4z7zk5ktv6gihtkkkznt6kg2j3pyy3rhc2civ.py":31:4)
#loc18 = loc(callsite(#loc1 at #loc2))
#loc19 = loc(callsite(#loc3 at #loc2))
#loc20 = loc(callsite(#loc12 at #loc2))
#loc21 = loc(callsite(#loc13 at #loc2))
