#loc = loc("/workspace/caption-remover-main/src/stages/inpaint/../../../.torch_compile_cache/py/cpy3jtztsxbrd4vhzaphnjlokj2fgluh4vcruk2ulraznxutiqej.py":20:0)
module {
  tt.func public @triton__0d1d2d3de(%arg0: !tt.ptr<f16, 1> {tt.divisibility = 16 : i32} loc("/workspace/caption-remover-main/src/stages/inpaint/../../../.torch_compile_cache/py/cpy3jtztsxbrd4vhzaphnjlokj2fgluh4vcruk2ulraznxutiqej.py":20:0), %arg1: !tt.ptr<f16, 1> {tt.divisibility = 16 : i32} loc("/workspace/caption-remover-main/src/stages/inpaint/../../../.torch_compile_cache/py/cpy3jtztsxbrd4vhzaphnjlokj2fgluh4vcruk2ulraznxutiqej.py":20:0), %arg2: !tt.ptr<f16, 1> {tt.divisibility = 16 : i32} loc("/workspace/caption-remover-main/src/stages/inpaint/../../../.torch_compile_cache/py/cpy3jtztsxbrd4vhzaphnjlokj2fgluh4vcruk2ulraznxutiqej.py":20:0), %arg3: i32 {tt.divisibility = 16 : i32, tt.max_divisibility = 16 : i32} loc("/workspace/caption-remover-main/src/stages/inpaint/../../../.torch_compile_cache/py/cpy3jtztsxbrd4vhzaphnjlokj2fgluh4vcruk2ulraznxutiqej.py":20:0)) attributes {noinline = false} {
    %cst = arith.constant dense<320> : tensor<1024xi32> loc(#loc1)
    %cst_0 = arith.constant dense<19008000> : tensor<1024xi32> loc(#loc2)
    %c1024_i32 = arith.constant 1024 : i32 loc(#loc3)
    %0 = tt.get_program_id x : i32 loc(#loc4)
    %1 = arith.muli %0, %c1024_i32 : i32 loc(#loc3)
    %2 = tt.make_range {end = 1024 : i32, start = 0 : i32} : tensor<1024xi32> loc(#loc5)
    %3 = tt.splat %1 : (i32) -> tensor<1024xi32> loc(#loc6)
    %4 = arith.addi %3, %2 : tensor<1024xi32> loc(#loc6)
    %5 = arith.cmpi slt, %4, %cst_0 : tensor<1024xi32> loc(#loc2)
    %6 = arith.remsi %4, %cst : tensor<1024xi32> loc(#loc1)
    %7 = tt.splat %arg0 : (!tt.ptr<f16, 1>) -> tensor<1024x!tt.ptr<f16, 1>> loc(#loc7)
    %8 = tt.addptr %7, %4 : tensor<1024x!tt.ptr<f16, 1>>, tensor<1024xi32> loc(#loc7)
    %9 = tt.load %8, %5 {cache = 1 : i32, evict = 1 : i32, isVolatile = false} : tensor<1024xf16> loc(#loc8)
    %10 = arith.extf %9 : tensor<1024xf16> to tensor<1024xf32> loc(#loc9)
    %11 = tt.splat %arg1 : (!tt.ptr<f16, 1>) -> tensor<1024x!tt.ptr<f16, 1>> loc(#loc10)
    %12 = tt.addptr %11, %6 : tensor<1024x!tt.ptr<f16, 1>>, tensor<1024xi32> loc(#loc10)
    %13 = tt.load %12, %5 {cache = 1 : i32, evict = 3 : i32, isVolatile = false} : tensor<1024xf16> loc(#loc11)
    %14 = arith.extf %13 : tensor<1024xf16> to tensor<1024xf32> loc(#loc12)
    %15 = tt.splat %arg2 : (!tt.ptr<f16, 1>) -> tensor<1024x!tt.ptr<f16, 1>> loc(#loc13)
    %16 = tt.addptr %15, %4 : tensor<1024x!tt.ptr<f16, 1>>, tensor<1024xi32> loc(#loc13)
    %17 = tt.load %16, %5 {cache = 1 : i32, evict = 1 : i32, isVolatile = false} : tensor<1024xf16> loc(#loc14)
    %18 = arith.extf %17 : tensor<1024xf16> to tensor<1024xf32> loc(#loc15)
    %19 = arith.addf %10, %14 : tensor<1024xf32> loc(#loc16)
    %20 = arith.addf %19, %18 : tensor<1024xf32> loc(#loc17)
    %21 = arith.truncf %20 : tensor<1024xf32> to tensor<1024xf16> loc(#loc18)
    tt.store %8, %21, %5 {cache = 1 : i32, evict = 1 : i32} : tensor<1024xf16> loc(#loc18)
    tt.return loc(#loc19)
  } loc(#loc)
} loc(#loc)
#loc1 = loc("/workspace/caption-remover-main/src/stages/inpaint/../../../.torch_compile_cache/py/cpy3jtztsxbrd4vhzaphnjlokj2fgluh4vcruk2ulraznxutiqej.py":26:18)
#loc2 = loc("/workspace/caption-remover-main/src/stages/inpaint/../../../.torch_compile_cache/py/cpy3jtztsxbrd4vhzaphnjlokj2fgluh4vcruk2ulraznxutiqej.py":24:21)
#loc3 = loc("/workspace/caption-remover-main/src/stages/inpaint/../../../.torch_compile_cache/py/cpy3jtztsxbrd4vhzaphnjlokj2fgluh4vcruk2ulraznxutiqej.py":22:33)
#loc4 = loc("/workspace/caption-remover-main/src/stages/inpaint/../../../.torch_compile_cache/py/cpy3jtztsxbrd4vhzaphnjlokj2fgluh4vcruk2ulraznxutiqej.py":22:28)
#loc5 = loc("/workspace/caption-remover-main/src/stages/inpaint/../../../.torch_compile_cache/py/cpy3jtztsxbrd4vhzaphnjlokj2fgluh4vcruk2ulraznxutiqej.py":23:36)
#loc6 = loc("/workspace/caption-remover-main/src/stages/inpaint/../../../.torch_compile_cache/py/cpy3jtztsxbrd4vhzaphnjlokj2fgluh4vcruk2ulraznxutiqej.py":23:23)
#loc7 = loc("/workspace/caption-remover-main/src/stages/inpaint/../../../.torch_compile_cache/py/cpy3jtztsxbrd4vhzaphnjlokj2fgluh4vcruk2ulraznxutiqej.py":27:34)
#loc8 = loc("/workspace/caption-remover-main/src/stages/inpaint/../../../.torch_compile_cache/py/cpy3jtztsxbrd4vhzaphnjlokj2fgluh4vcruk2ulraznxutiqej.py":27:39)
#loc9 = loc("/workspace/caption-remover-main/src/stages/inpaint/../../../.torch_compile_cache/py/cpy3jtztsxbrd4vhzaphnjlokj2fgluh4vcruk2ulraznxutiqej.py":27:49)
#loc10 = loc("/workspace/caption-remover-main/src/stages/inpaint/../../../.torch_compile_cache/py/cpy3jtztsxbrd4vhzaphnjlokj2fgluh4vcruk2ulraznxutiqej.py":28:30)
#loc11 = loc("/workspace/caption-remover-main/src/stages/inpaint/../../../.torch_compile_cache/py/cpy3jtztsxbrd4vhzaphnjlokj2fgluh4vcruk2ulraznxutiqej.py":28:35)
#loc12 = loc("/workspace/caption-remover-main/src/stages/inpaint/../../../.torch_compile_cache/py/cpy3jtztsxbrd4vhzaphnjlokj2fgluh4vcruk2ulraznxutiqej.py":28:75)
#loc13 = loc("/workspace/caption-remover-main/src/stages/inpaint/../../../.torch_compile_cache/py/cpy3jtztsxbrd4vhzaphnjlokj2fgluh4vcruk2ulraznxutiqej.py":29:30)
#loc14 = loc("/workspace/caption-remover-main/src/stages/inpaint/../../../.torch_compile_cache/py/cpy3jtztsxbrd4vhzaphnjlokj2fgluh4vcruk2ulraznxutiqej.py":29:35)
#loc15 = loc("/workspace/caption-remover-main/src/stages/inpaint/../../../.torch_compile_cache/py/cpy3jtztsxbrd4vhzaphnjlokj2fgluh4vcruk2ulraznxutiqej.py":29:45)
#loc16 = loc("/workspace/caption-remover-main/src/stages/inpaint/../../../.torch_compile_cache/py/cpy3jtztsxbrd4vhzaphnjlokj2fgluh4vcruk2ulraznxutiqej.py":30:18)
#loc17 = loc("/workspace/caption-remover-main/src/stages/inpaint/../../../.torch_compile_cache/py/cpy3jtztsxbrd4vhzaphnjlokj2fgluh4vcruk2ulraznxutiqej.py":31:18)
#loc18 = loc("/workspace/caption-remover-main/src/stages/inpaint/../../../.torch_compile_cache/py/cpy3jtztsxbrd4vhzaphnjlokj2fgluh4vcruk2ulraznxutiqej.py":32:39)
#loc19 = loc("/workspace/caption-remover-main/src/stages/inpaint/../../../.torch_compile_cache/py/cpy3jtztsxbrd4vhzaphnjlokj2fgluh4vcruk2ulraznxutiqej.py":32:4)
