#loc = loc("/workspace/caption-remover-main/src/stages/inpaint/../../../.torch_compile_cache/q5/cq5jony7ax7qzw2tj6kzel3ykhottcsgfhy5s6vgxrpahbywgo6k.py":20:0)
#loc55 = loc(unknown)
module {
  tt.func public @triton__0d1d2d3d4d5d6d7d8d910111213de(%arg0: !tt.ptr<f16, 1> {tt.divisibility = 16 : i32} loc("/workspace/caption-remover-main/src/stages/inpaint/../../../.torch_compile_cache/q5/cq5jony7ax7qzw2tj6kzel3ykhottcsgfhy5s6vgxrpahbywgo6k.py":20:0), %arg1: !tt.ptr<f16, 1> {tt.divisibility = 16 : i32} loc("/workspace/caption-remover-main/src/stages/inpaint/../../../.torch_compile_cache/q5/cq5jony7ax7qzw2tj6kzel3ykhottcsgfhy5s6vgxrpahbywgo6k.py":20:0), %arg2: !tt.ptr<f16, 1> {tt.divisibility = 16 : i32} loc("/workspace/caption-remover-main/src/stages/inpaint/../../../.torch_compile_cache/q5/cq5jony7ax7qzw2tj6kzel3ykhottcsgfhy5s6vgxrpahbywgo6k.py":20:0), %arg3: !tt.ptr<f16, 1> {tt.divisibility = 16 : i32} loc("/workspace/caption-remover-main/src/stages/inpaint/../../../.torch_compile_cache/q5/cq5jony7ax7qzw2tj6kzel3ykhottcsgfhy5s6vgxrpahbywgo6k.py":20:0), %arg4: !tt.ptr<f16, 1> {tt.divisibility = 16 : i32} loc("/workspace/caption-remover-main/src/stages/inpaint/../../../.torch_compile_cache/q5/cq5jony7ax7qzw2tj6kzel3ykhottcsgfhy5s6vgxrpahbywgo6k.py":20:0), %arg5: !tt.ptr<f16, 1> {tt.divisibility = 16 : i32} loc("/workspace/caption-remover-main/src/stages/inpaint/../../../.torch_compile_cache/q5/cq5jony7ax7qzw2tj6kzel3ykhottcsgfhy5s6vgxrpahbywgo6k.py":20:0), %arg6: !tt.ptr<f16, 1> {tt.divisibility = 16 : i32} loc("/workspace/caption-remover-main/src/stages/inpaint/../../../.torch_compile_cache/q5/cq5jony7ax7qzw2tj6kzel3ykhottcsgfhy5s6vgxrpahbywgo6k.py":20:0), %arg7: !tt.ptr<f16, 1> {tt.divisibility = 16 : i32} loc("/workspace/caption-remover-main/src/stages/inpaint/../../../.torch_compile_cache/q5/cq5jony7ax7qzw2tj6kzel3ykhottcsgfhy5s6vgxrpahbywgo6k.py":20:0), %arg8: !tt.ptr<f16, 1> {tt.divisibility = 16 : i32} loc("/workspace/caption-remover-main/src/stages/inpaint/../../../.torch_compile_cache/q5/cq5jony7ax7qzw2tj6kzel3ykhottcsgfhy5s6vgxrpahbywgo6k.py":20:0), %arg9: i32 loc("/workspace/caption-remover-main/src/stages/inpaint/../../../.torch_compile_cache/q5/cq5jony7ax7qzw2tj6kzel3ykhottcsgfhy5s6vgxrpahbywgo6k.py":20:0), %arg10: i32 loc("/workspace/caption-remover-main/src/stages/inpaint/../../../.torch_compile_cache/q5/cq5jony7ax7qzw2tj6kzel3ykhottcsgfhy5s6vgxrpahbywgo6k.py":20:0), %arg11: i32 loc("/workspace/caption-remover-main/src/stages/inpaint/../../../.torch_compile_cache/q5/cq5jony7ax7qzw2tj6kzel3ykhottcsgfhy5s6vgxrpahbywgo6k.py":20:0), %arg12: i32 loc("/workspace/caption-remover-main/src/stages/inpaint/../../../.torch_compile_cache/q5/cq5jony7ax7qzw2tj6kzel3ykhottcsgfhy5s6vgxrpahbywgo6k.py":20:0), %arg13: i32 {tt.divisibility = 16 : i32, tt.max_divisibility = 16 : i32} loc("/workspace/caption-remover-main/src/stages/inpaint/../../../.torch_compile_cache/q5/cq5jony7ax7qzw2tj6kzel3ykhottcsgfhy5s6vgxrpahbywgo6k.py":20:0)) attributes {noinline = false} {
    %c1280_i32 = arith.constant 1280 : i32 loc(#loc1)
    %cst = arith.constant dense<0.000000e+00> : tensor<1x2048xf16> loc(#loc2)
    %cst_0 = arith.constant 0.000000e+00 : f32 loc(#loc98)
    %cst_1 = arith.constant dense<1.000000e+00> : tensor<1x2048xf32> loc(#loc85)
    %cst_2 = arith.constant dense<9.99999974E-6> : tensor<1x1xf32> loc(#loc8)
    %cst_3 = arith.constant dense<1.280000e+03> : tensor<1x1xf32> loc(#loc9)
    %cst_4 = arith.constant dense<1.250000e-01> : tensor<1x2048xf32> loc(#loc10)
    %cst_5 = arith.constant dense<0.000000e+00> : tensor<1x2048xf32> loc(#loc11)
    %cst_6 = arith.constant dense<1280> : tensor<1x2048xi32> loc(#loc12)
    %0 = tt.get_program_id x : i32 loc(#loc13)
    %1 = arith.cmpi slt, %0, %arg12 : i32 loc(#loc14)
    %2 = tt.make_range {end = 2048 : i32, start = 0 : i32} : tensor<2048xi32> loc(#loc15)
    %3 = tt.expand_dims %2 {axis = 0 : i32} : (tensor<2048xi32>) -> tensor<1x2048xi32> loc(#loc16)
    %4 = arith.remsi %0, %arg9 : i32 loc(#loc17)
    %5 = arith.divsi %0, %arg9 : i32 loc(#loc18)
    %6 = arith.cmpi slt, %3, %cst_6 : tensor<1x2048xi32> loc(#loc12)
    %7 = arith.muli %0, %c1280_i32 : i32 loc(#loc19)
    %8 = tt.splat %7 : (i32) -> tensor<1x2048xi32> loc(#loc20)
    %9 = arith.addi %3, %8 : tensor<1x2048xi32> loc(#loc20)
    %10 = tt.splat %arg0 : (!tt.ptr<f16, 1>) -> tensor<1x2048x!tt.ptr<f16, 1>> loc(#loc21)
    %11 = tt.addptr %10, %9 : tensor<1x2048x!tt.ptr<f16, 1>>, tensor<1x2048xi32> loc(#loc21)
    %12 = tt.splat %1 : (i1) -> tensor<1x2048xi1> loc(#loc22)
    %13 = arith.andi %6, %12 : tensor<1x2048xi1> loc(#loc22)
    %14 = tt.load %11, %13, %cst {cache = 1 : i32, evict = 2 : i32, isVolatile = false} : tensor<1x2048xf16> loc(#loc11)
    %15 = arith.extf %14 : tensor<1x2048xf16> to tensor<1x2048xf32> loc(#loc23)
    %16 = tt.splat %arg1 : (!tt.ptr<f16, 1>) -> tensor<1x2048x!tt.ptr<f16, 1>> loc(#loc24)
    %17 = tt.addptr %16, %3 : tensor<1x2048x!tt.ptr<f16, 1>>, tensor<1x2048xi32> loc(#loc24)
    %18 = tt.load %17, %6, %cst {cache = 1 : i32, evict = 3 : i32, isVolatile = false} : tensor<1x2048xf16> loc(#loc25)
    %19 = arith.extf %18 : tensor<1x2048xf16> to tensor<1x2048xf32> loc(#loc26)
    %20 = tt.splat %arg2 : (!tt.ptr<f16, 1>) -> tensor<1x2048x!tt.ptr<f16, 1>> loc(#loc27)
    %21 = tt.addptr %20, %9 : tensor<1x2048x!tt.ptr<f16, 1>>, tensor<1x2048xi32> loc(#loc27)
    %22 = tt.load %21, %13, %cst {cache = 1 : i32, evict = 2 : i32, isVolatile = false} : tensor<1x2048xf16> loc(#loc28)
    %23 = arith.extf %22 : tensor<1x2048xf16> to tensor<1x2048xf32> loc(#loc29)
    %24 = arith.muli %arg10, %arg11 : i32 loc(#loc30)
    %25 = tt.splat %24 : (i32) -> tensor<1x2048xi32> loc(#loc31)
    %26 = arith.muli %25, %3 : tensor<1x2048xi32> loc(#loc31)
    %27 = tt.splat %4 : (i32) -> tensor<1x2048xi32> loc(#loc32)
    %28 = arith.addi %27, %26 : tensor<1x2048xi32> loc(#loc32)
    %29 = arith.muli %arg10, %c1280_i32 : i32 loc(#loc33)
    %30 = arith.muli %29, %arg11 : i32 loc(#loc34)
    %31 = arith.muli %30, %5 : i32 loc(#loc35)
    %32 = tt.splat %31 : (i32) -> tensor<1x2048xi32> loc(#loc36)
    %33 = arith.addi %28, %32 : tensor<1x2048xi32> loc(#loc36)
    %34 = tt.splat %arg3 : (!tt.ptr<f16, 1>) -> tensor<1x2048x!tt.ptr<f16, 1>> loc(#loc37)
    %35 = tt.addptr %34, %33 : tensor<1x2048x!tt.ptr<f16, 1>>, tensor<1x2048xi32> loc(#loc37)
    %36 = tt.load %35, %13, %cst {cache = 1 : i32, evict = 3 : i32, isVolatile = false} : tensor<1x2048xf16> loc(#loc38)
    %37 = arith.extf %36 : tensor<1x2048xf16> to tensor<1x2048xf32> loc(#loc39)
    %38 = tt.splat %arg4 : (!tt.ptr<f16, 1>) -> tensor<1x2048x!tt.ptr<f16, 1>> loc(#loc40)
    %39 = tt.addptr %38, %3 : tensor<1x2048x!tt.ptr<f16, 1>>, tensor<1x2048xi32> loc(#loc40)
    %40 = tt.load %39, %6, %cst {cache = 1 : i32, evict = 3 : i32, isVolatile = false} : tensor<1x2048xf16> loc(#loc41)
    %41 = arith.extf %40 : tensor<1x2048xf16> to tensor<1x2048xf32> loc(#loc42)
    %42 = tt.splat %arg5 : (!tt.ptr<f16, 1>) -> tensor<1x2048x!tt.ptr<f16, 1>> loc(#loc43)
    %43 = tt.addptr %42, %33 : tensor<1x2048x!tt.ptr<f16, 1>>, tensor<1x2048xi32> loc(#loc43)
    %44 = tt.load %43, %13, %cst {cache = 1 : i32, evict = 3 : i32, isVolatile = false} : tensor<1x2048xf16> loc(#loc44)
    %45 = arith.extf %44 : tensor<1x2048xf16> to tensor<1x2048xf32> loc(#loc45)
    %46 = arith.addf %15, %19 : tensor<1x2048xf32> loc(#loc46)
    %47 = arith.mulf %23, %cst_4 : tensor<1x2048xf32> loc(#loc10)
    %48 = arith.addf %46, %47 : tensor<1x2048xf32> loc(#loc47)
    %49 = arith.addf %37, %41 : tensor<1x2048xf32> loc(#loc48)
    %50 = arith.mulf %45, %cst_4 : tensor<1x2048xf32> loc(#loc49)
    %51 = arith.addf %49, %50 : tensor<1x2048xf32> loc(#loc50)
    %52 = arith.addf %48, %51 : tensor<1x2048xf32> loc(#loc51)
    %53 = arith.select %13, %52, %cst_5 : tensor<1x2048xi1>, tensor<1x2048xf32> loc(#loc52)
    %54 = arith.select %13, %cst_1, %cst_5 : tensor<1x2048xi1>, tensor<1x2048xf32> loc(#loc53)
    %55 = arith.truncf %52 : tensor<1x2048xf32> to tensor<1x2048xf16> loc(#loc54)
    tt.store %11, %55, %13 {cache = 1 : i32, evict = 1 : i32} : tensor<1x2048xf16> loc(#loc54)
    %56:3 = "tt.reduce"(%53, %cst_5, %54) <{axis = 1 : i32}> ({
    ^bb0(%arg14: f32 loc(unknown), %arg15: f32 loc(unknown), %arg16: f32 loc(unknown), %arg17: f32 loc(unknown), %arg18: f32 loc(unknown), %arg19: f32 loc(unknown)):
      %81 = arith.subf %arg17, %arg14 : f32 loc(#loc99)
      %82 = arith.addf %arg16, %arg19 : f32 loc(#loc100)
      %83 = arith.cmpf oeq, %82, %cst_0 : f32 loc(#loc98)
      %84 = arith.divf %arg19, %82 : f32 loc(#loc101)
      %85 = arith.select %83, %cst_0, %84 : f32 loc(#loc102)
      %86 = arith.mulf %81, %85 : f32 loc(#loc103)
      %87 = arith.addf %arg14, %86 : f32 loc(#loc104)
      %88 = arith.addf %arg15, %arg18 : f32 loc(#loc105)
      %89 = arith.mulf %81, %81 : f32 loc(#loc106)
      %90 = arith.mulf %89, %arg16 : f32 loc(#loc107)
      %91 = arith.mulf %90, %85 : f32 loc(#loc108)
      %92 = arith.addf %88, %91 : f32 loc(#loc109)
      tt.reduce.return %87, %92, %82 : f32, f32, f32 loc(#loc86)
    }) : (tensor<1x2048xf32>, tensor<1x2048xf32>, tensor<1x2048xf32>) -> (tensor<1xf32>, tensor<1xf32>, tensor<1xf32>) loc(#loc86)
    %57 = tt.expand_dims %56#0 {axis = 1 : i32} : (tensor<1xf32>) -> tensor<1x1xf32> loc(#loc67)
    %58 = tt.expand_dims %56#1 {axis = 1 : i32} : (tensor<1xf32>) -> tensor<1x1xf32> loc(#loc68)
    %59 = tt.load %11, %13, %cst {cache = 1 : i32, evict = 2 : i32, isVolatile = false} : tensor<1x2048xf16> loc(#loc69)
    %60 = arith.extf %59 : tensor<1x2048xf16> to tensor<1x2048xf32> loc(#loc70)
    %61 = tt.splat %arg6 : (!tt.ptr<f16, 1>) -> tensor<1x2048x!tt.ptr<f16, 1>> loc(#loc71)
    %62 = tt.addptr %61, %3 : tensor<1x2048x!tt.ptr<f16, 1>>, tensor<1x2048xi32> loc(#loc71)
    %63 = tt.load %62, %6, %cst {cache = 1 : i32, evict = 3 : i32, isVolatile = false} : tensor<1x2048xf16> loc(#loc72)
    %64 = arith.extf %63 : tensor<1x2048xf16> to tensor<1x2048xf32> loc(#loc73)
    %65 = tt.splat %arg7 : (!tt.ptr<f16, 1>) -> tensor<1x2048x!tt.ptr<f16, 1>> loc(#loc74)
    %66 = tt.addptr %65, %3 : tensor<1x2048x!tt.ptr<f16, 1>>, tensor<1x2048xi32> loc(#loc74)
    %67 = tt.load %66, %6, %cst {cache = 1 : i32, evict = 3 : i32, isVolatile = false} : tensor<1x2048xf16> loc(#loc2)
    %68 = arith.extf %67 : tensor<1x2048xf16> to tensor<1x2048xf32> loc(#loc75)
    %69 = tt.broadcast %57 : (tensor<1x1xf32>) -> tensor<1x2048xf32> loc(#loc76)
    %70 = arith.subf %60, %69 : tensor<1x2048xf32> loc(#loc76)
    %71 = arith.divf %58, %cst_3 : tensor<1x1xf32> loc(#loc9)
    %72 = arith.addf %71, %cst_2 : tensor<1x1xf32> loc(#loc8)
    %73 = tt.extern_elementwise %72 {libname = "libdevice", libpath = "/opt/venv/lib/python3.10/site-packages/triton/language/../third_party/cuda/lib/libdevice.10.bc", pure = true, symbol = "__nv_rsqrtf"} : (tensor<1x1xf32>) -> tensor<1x1xf32> loc(#loc77)
    %74 = tt.broadcast %73 : (tensor<1x1xf32>) -> tensor<1x2048xf32> loc(#loc78)
    %75 = arith.mulf %70, %74 : tensor<1x2048xf32> loc(#loc78)
    %76 = arith.mulf %75, %64 : tensor<1x2048xf32> loc(#loc79)
    %77 = arith.addf %76, %68 : tensor<1x2048xf32> loc(#loc80)
    %78 = tt.splat %arg8 : (!tt.ptr<f16, 1>) -> tensor<1x2048x!tt.ptr<f16, 1>> loc(#loc81)
    %79 = tt.addptr %78, %9 : tensor<1x2048x!tt.ptr<f16, 1>>, tensor<1x2048xi32> loc(#loc81)
    %80 = arith.truncf %77 : tensor<1x2048xf32> to tensor<1x2048xf16> loc(#loc82)
    tt.store %79, %80, %13 {cache = 1 : i32, evict = 1 : i32} : tensor<1x2048xf16> loc(#loc82)
    tt.return loc(#loc83)
  } loc(#loc)
} loc(#loc)
#loc1 = loc("/workspace/caption-remover-main/src/stages/inpaint/../../../.torch_compile_cache/q5/cq5jony7ax7qzw2tj6kzel3ykhottcsgfhy5s6vgxrpahbywgo6k.py":21:13)
#loc2 = loc("/workspace/caption-remover-main/src/stages/inpaint/../../../.torch_compile_cache/q5/cq5jony7ax7qzw2tj6kzel3ykhottcsgfhy5s6vgxrpahbywgo6k.py":73:40)
#loc3 = loc("/opt/venv/lib/python3.10/site-packages/torch/_inductor/triton_helpers.py":121:39)
#loc4 = loc("/opt/venv/lib/python3.10/site-packages/torch/_inductor/triton_helpers.py":131:46)
#loc5 = loc("/workspace/caption-remover-main/src/stages/inpaint/../../../.torch_compile_cache/q5/cq5jony7ax7qzw2tj6kzel3ykhottcsgfhy5s6vgxrpahbywgo6k.py":62:44)
#loc6 = loc("/opt/venv/lib/python3.10/site-packages/torch/_inductor/triton_helpers.py":106:46)
#loc7 = loc("/workspace/caption-remover-main/src/stages/inpaint/../../../.torch_compile_cache/q5/cq5jony7ax7qzw2tj6kzel3ykhottcsgfhy5s6vgxrpahbywgo6k.py":55:55)
#loc8 = loc("/workspace/caption-remover-main/src/stages/inpaint/../../../.torch_compile_cache/q5/cq5jony7ax7qzw2tj6kzel3ykhottcsgfhy5s6vgxrpahbywgo6k.py":79:24)
#loc9 = loc("/workspace/caption-remover-main/src/stages/inpaint/../../../.torch_compile_cache/q5/cq5jony7ax7qzw2tj6kzel3ykhottcsgfhy5s6vgxrpahbywgo6k.py":77:24)
#loc10 = loc("/workspace/caption-remover-main/src/stages/inpaint/../../../.torch_compile_cache/q5/cq5jony7ax7qzw2tj6kzel3ykhottcsgfhy5s6vgxrpahbywgo6k.py":44:22)
#loc11 = loc("/workspace/caption-remover-main/src/stages/inpaint/../../../.torch_compile_cache/q5/cq5jony7ax7qzw2tj6kzel3ykhottcsgfhy5s6vgxrpahbywgo6k.py":36:55)
#loc12 = loc("/workspace/caption-remover-main/src/stages/inpaint/../../../.torch_compile_cache/q5/cq5jony7ax7qzw2tj6kzel3ykhottcsgfhy5s6vgxrpahbywgo6k.py":34:25)
#loc13 = loc("/workspace/caption-remover-main/src/stages/inpaint/../../../.torch_compile_cache/q5/cq5jony7ax7qzw2tj6kzel3ykhottcsgfhy5s6vgxrpahbywgo6k.py":22:28)
#loc14 = loc("/workspace/caption-remover-main/src/stages/inpaint/../../../.torch_compile_cache/q5/cq5jony7ax7qzw2tj6kzel3ykhottcsgfhy5s6vgxrpahbywgo6k.py":24:21)
#loc15 = loc("/workspace/caption-remover-main/src/stages/inpaint/../../../.torch_compile_cache/q5/cq5jony7ax7qzw2tj6kzel3ykhottcsgfhy5s6vgxrpahbywgo6k.py":25:25)
#loc16 = loc("/workspace/caption-remover-main/src/stages/inpaint/../../../.torch_compile_cache/q5/cq5jony7ax7qzw2tj6kzel3ykhottcsgfhy5s6vgxrpahbywgo6k.py":25:33)
#loc17 = loc("/workspace/caption-remover-main/src/stages/inpaint/../../../.torch_compile_cache/q5/cq5jony7ax7qzw2tj6kzel3ykhottcsgfhy5s6vgxrpahbywgo6k.py":27:18)
#loc18 = loc("/workspace/caption-remover-main/src/stages/inpaint/../../../.torch_compile_cache/q5/cq5jony7ax7qzw2tj6kzel3ykhottcsgfhy5s6vgxrpahbywgo6k.py":28:20)
#loc19 = loc("/workspace/caption-remover-main/src/stages/inpaint/../../../.torch_compile_cache/q5/cq5jony7ax7qzw2tj6kzel3ykhottcsgfhy5s6vgxrpahbywgo6k.py":36:49)
#loc20 = loc("/workspace/caption-remover-main/src/stages/inpaint/../../../.torch_compile_cache/q5/cq5jony7ax7qzw2tj6kzel3ykhottcsgfhy5s6vgxrpahbywgo6k.py":36:44)
#loc21 = loc("/workspace/caption-remover-main/src/stages/inpaint/../../../.torch_compile_cache/q5/cq5jony7ax7qzw2tj6kzel3ykhottcsgfhy5s6vgxrpahbywgo6k.py":36:38)
#loc22 = loc("/workspace/caption-remover-main/src/stages/inpaint/../../../.torch_compile_cache/q5/cq5jony7ax7qzw2tj6kzel3ykhottcsgfhy5s6vgxrpahbywgo6k.py":36:63)
#loc23 = loc("/workspace/caption-remover-main/src/stages/inpaint/../../../.torch_compile_cache/q5/cq5jony7ax7qzw2tj6kzel3ykhottcsgfhy5s6vgxrpahbywgo6k.py":36:115)
#loc24 = loc("/workspace/caption-remover-main/src/stages/inpaint/../../../.torch_compile_cache/q5/cq5jony7ax7qzw2tj6kzel3ykhottcsgfhy5s6vgxrpahbywgo6k.py":37:34)
#loc25 = loc("/workspace/caption-remover-main/src/stages/inpaint/../../../.torch_compile_cache/q5/cq5jony7ax7qzw2tj6kzel3ykhottcsgfhy5s6vgxrpahbywgo6k.py":37:39)
#loc26 = loc("/workspace/caption-remover-main/src/stages/inpaint/../../../.torch_compile_cache/q5/cq5jony7ax7qzw2tj6kzel3ykhottcsgfhy5s6vgxrpahbywgo6k.py":37:90)
#loc27 = loc("/workspace/caption-remover-main/src/stages/inpaint/../../../.torch_compile_cache/q5/cq5jony7ax7qzw2tj6kzel3ykhottcsgfhy5s6vgxrpahbywgo6k.py":38:34)
#loc28 = loc("/workspace/caption-remover-main/src/stages/inpaint/../../../.torch_compile_cache/q5/cq5jony7ax7qzw2tj6kzel3ykhottcsgfhy5s6vgxrpahbywgo6k.py":38:51)
#loc29 = loc("/workspace/caption-remover-main/src/stages/inpaint/../../../.torch_compile_cache/q5/cq5jony7ax7qzw2tj6kzel3ykhottcsgfhy5s6vgxrpahbywgo6k.py":38:111)
#loc30 = loc("/workspace/caption-remover-main/src/stages/inpaint/../../../.torch_compile_cache/q5/cq5jony7ax7qzw2tj6kzel3ykhottcsgfhy5s6vgxrpahbywgo6k.py":39:44)
#loc31 = loc("/workspace/caption-remover-main/src/stages/inpaint/../../../.torch_compile_cache/q5/cq5jony7ax7qzw2tj6kzel3ykhottcsgfhy5s6vgxrpahbywgo6k.py":39:48)
#loc32 = loc("/workspace/caption-remover-main/src/stages/inpaint/../../../.torch_compile_cache/q5/cq5jony7ax7qzw2tj6kzel3ykhottcsgfhy5s6vgxrpahbywgo6k.py":39:40)
#loc33 = loc("/workspace/caption-remover-main/src/stages/inpaint/../../../.torch_compile_cache/q5/cq5jony7ax7qzw2tj6kzel3ykhottcsgfhy5s6vgxrpahbywgo6k.py":39:60)
#loc34 = loc("/workspace/caption-remover-main/src/stages/inpaint/../../../.torch_compile_cache/q5/cq5jony7ax7qzw2tj6kzel3ykhottcsgfhy5s6vgxrpahbywgo6k.py":39:64)
#loc35 = loc("/workspace/caption-remover-main/src/stages/inpaint/../../../.torch_compile_cache/q5/cq5jony7ax7qzw2tj6kzel3ykhottcsgfhy5s6vgxrpahbywgo6k.py":39:68)
#loc36 = loc("/workspace/caption-remover-main/src/stages/inpaint/../../../.torch_compile_cache/q5/cq5jony7ax7qzw2tj6kzel3ykhottcsgfhy5s6vgxrpahbywgo6k.py":39:55)
#loc37 = loc("/workspace/caption-remover-main/src/stages/inpaint/../../../.torch_compile_cache/q5/cq5jony7ax7qzw2tj6kzel3ykhottcsgfhy5s6vgxrpahbywgo6k.py":39:34)
#loc38 = loc("/workspace/caption-remover-main/src/stages/inpaint/../../../.torch_compile_cache/q5/cq5jony7ax7qzw2tj6kzel3ykhottcsgfhy5s6vgxrpahbywgo6k.py":39:74)
#loc39 = loc("/workspace/caption-remover-main/src/stages/inpaint/../../../.torch_compile_cache/q5/cq5jony7ax7qzw2tj6kzel3ykhottcsgfhy5s6vgxrpahbywgo6k.py":39:133)
#loc40 = loc("/workspace/caption-remover-main/src/stages/inpaint/../../../.torch_compile_cache/q5/cq5jony7ax7qzw2tj6kzel3ykhottcsgfhy5s6vgxrpahbywgo6k.py":40:35)
#loc41 = loc("/workspace/caption-remover-main/src/stages/inpaint/../../../.torch_compile_cache/q5/cq5jony7ax7qzw2tj6kzel3ykhottcsgfhy5s6vgxrpahbywgo6k.py":40:40)
#loc42 = loc("/workspace/caption-remover-main/src/stages/inpaint/../../../.torch_compile_cache/q5/cq5jony7ax7qzw2tj6kzel3ykhottcsgfhy5s6vgxrpahbywgo6k.py":40:91)
#loc43 = loc("/workspace/caption-remover-main/src/stages/inpaint/../../../.torch_compile_cache/q5/cq5jony7ax7qzw2tj6kzel3ykhottcsgfhy5s6vgxrpahbywgo6k.py":41:35)
#loc44 = loc("/workspace/caption-remover-main/src/stages/inpaint/../../../.torch_compile_cache/q5/cq5jony7ax7qzw2tj6kzel3ykhottcsgfhy5s6vgxrpahbywgo6k.py":41:75)
#loc45 = loc("/workspace/caption-remover-main/src/stages/inpaint/../../../.torch_compile_cache/q5/cq5jony7ax7qzw2tj6kzel3ykhottcsgfhy5s6vgxrpahbywgo6k.py":41:134)
#loc46 = loc("/workspace/caption-remover-main/src/stages/inpaint/../../../.torch_compile_cache/q5/cq5jony7ax7qzw2tj6kzel3ykhottcsgfhy5s6vgxrpahbywgo6k.py":42:22)
#loc47 = loc("/workspace/caption-remover-main/src/stages/inpaint/../../../.torch_compile_cache/q5/cq5jony7ax7qzw2tj6kzel3ykhottcsgfhy5s6vgxrpahbywgo6k.py":45:22)
#loc48 = loc("/workspace/caption-remover-main/src/stages/inpaint/../../../.torch_compile_cache/q5/cq5jony7ax7qzw2tj6kzel3ykhottcsgfhy5s6vgxrpahbywgo6k.py":48:23)
#loc49 = loc("/workspace/caption-remover-main/src/stages/inpaint/../../../.torch_compile_cache/q5/cq5jony7ax7qzw2tj6kzel3ykhottcsgfhy5s6vgxrpahbywgo6k.py":49:24)
#loc50 = loc("/workspace/caption-remover-main/src/stages/inpaint/../../../.torch_compile_cache/q5/cq5jony7ax7qzw2tj6kzel3ykhottcsgfhy5s6vgxrpahbywgo6k.py":50:24)
#loc51 = loc("/workspace/caption-remover-main/src/stages/inpaint/../../../.torch_compile_cache/q5/cq5jony7ax7qzw2tj6kzel3ykhottcsgfhy5s6vgxrpahbywgo6k.py":51:23)
#loc52 = loc("/workspace/caption-remover-main/src/stages/inpaint/../../../.torch_compile_cache/q5/cq5jony7ax7qzw2tj6kzel3ykhottcsgfhy5s6vgxrpahbywgo6k.py":57:62)
#loc53 = loc("/workspace/caption-remover-main/src/stages/inpaint/../../../.torch_compile_cache/q5/cq5jony7ax7qzw2tj6kzel3ykhottcsgfhy5s6vgxrpahbywgo6k.py":59:66)
#loc54 = loc("/workspace/caption-remover-main/src/stages/inpaint/../../../.torch_compile_cache/q5/cq5jony7ax7qzw2tj6kzel3ykhottcsgfhy5s6vgxrpahbywgo6k.py":60:56)
#loc56 = loc("/opt/venv/lib/python3.10/site-packages/torch/_inductor/triton_helpers.py":119:21)
#loc57 = loc("/opt/venv/lib/python3.10/site-packages/torch/_inductor/triton_helpers.py":120:28)
#loc58 = loc("/opt/venv/lib/python3.10/site-packages/torch/_inductor/triton_helpers.py":121:60)
#loc59 = loc("/opt/venv/lib/python3.10/site-packages/torch/_inductor/triton_helpers.py":121:49)
#loc60 = loc("/opt/venv/lib/python3.10/site-packages/torch/_inductor/triton_helpers.py":123:25)
#loc61 = loc("/opt/venv/lib/python3.10/site-packages/torch/_inductor/triton_helpers.py":123:17)
#loc62 = loc("/opt/venv/lib/python3.10/site-packages/torch/_inductor/triton_helpers.py":124:15)
#loc63 = loc("/opt/venv/lib/python3.10/site-packages/torch/_inductor/triton_helpers.py":124:30)
#loc64 = loc("/opt/venv/lib/python3.10/site-packages/torch/_inductor/triton_helpers.py":124:38)
#loc65 = loc("/opt/venv/lib/python3.10/site-packages/torch/_inductor/triton_helpers.py":124:49)
#loc66 = loc("/opt/venv/lib/python3.10/site-packages/torch/_inductor/triton_helpers.py":124:22)
#loc67 = loc("/workspace/caption-remover-main/src/stages/inpaint/../../../.torch_compile_cache/q5/cq5jony7ax7qzw2tj6kzel3ykhottcsgfhy5s6vgxrpahbywgo6k.py":64:22)
#loc68 = loc("/workspace/caption-remover-main/src/stages/inpaint/../../../.torch_compile_cache/q5/cq5jony7ax7qzw2tj6kzel3ykhottcsgfhy5s6vgxrpahbywgo6k.py":65:22)
#loc69 = loc("/workspace/caption-remover-main/src/stages/inpaint/../../../.torch_compile_cache/q5/cq5jony7ax7qzw2tj6kzel3ykhottcsgfhy5s6vgxrpahbywgo6k.py":71:56)
#loc70 = loc("/workspace/caption-remover-main/src/stages/inpaint/../../../.torch_compile_cache/q5/cq5jony7ax7qzw2tj6kzel3ykhottcsgfhy5s6vgxrpahbywgo6k.py":71:116)
#loc71 = loc("/workspace/caption-remover-main/src/stages/inpaint/../../../.torch_compile_cache/q5/cq5jony7ax7qzw2tj6kzel3ykhottcsgfhy5s6vgxrpahbywgo6k.py":72:35)
#loc72 = loc("/workspace/caption-remover-main/src/stages/inpaint/../../../.torch_compile_cache/q5/cq5jony7ax7qzw2tj6kzel3ykhottcsgfhy5s6vgxrpahbywgo6k.py":72:40)
#loc73 = loc("/workspace/caption-remover-main/src/stages/inpaint/../../../.torch_compile_cache/q5/cq5jony7ax7qzw2tj6kzel3ykhottcsgfhy5s6vgxrpahbywgo6k.py":72:91)
#loc74 = loc("/workspace/caption-remover-main/src/stages/inpaint/../../../.torch_compile_cache/q5/cq5jony7ax7qzw2tj6kzel3ykhottcsgfhy5s6vgxrpahbywgo6k.py":73:35)
#loc75 = loc("/workspace/caption-remover-main/src/stages/inpaint/../../../.torch_compile_cache/q5/cq5jony7ax7qzw2tj6kzel3ykhottcsgfhy5s6vgxrpahbywgo6k.py":73:91)
#loc76 = loc("/workspace/caption-remover-main/src/stages/inpaint/../../../.torch_compile_cache/q5/cq5jony7ax7qzw2tj6kzel3ykhottcsgfhy5s6vgxrpahbywgo6k.py":75:24)
#loc77 = loc("/workspace/caption-remover-main/src/stages/inpaint/../../../.torch_compile_cache/q5/cq5jony7ax7qzw2tj6kzel3ykhottcsgfhy5s6vgxrpahbywgo6k.py":80:32)
#loc78 = loc("/workspace/caption-remover-main/src/stages/inpaint/../../../.torch_compile_cache/q5/cq5jony7ax7qzw2tj6kzel3ykhottcsgfhy5s6vgxrpahbywgo6k.py":81:24)
#loc79 = loc("/workspace/caption-remover-main/src/stages/inpaint/../../../.torch_compile_cache/q5/cq5jony7ax7qzw2tj6kzel3ykhottcsgfhy5s6vgxrpahbywgo6k.py":83:24)
#loc80 = loc("/workspace/caption-remover-main/src/stages/inpaint/../../../.torch_compile_cache/q5/cq5jony7ax7qzw2tj6kzel3ykhottcsgfhy5s6vgxrpahbywgo6k.py":85:24)
#loc81 = loc("/workspace/caption-remover-main/src/stages/inpaint/../../../.torch_compile_cache/q5/cq5jony7ax7qzw2tj6kzel3ykhottcsgfhy5s6vgxrpahbywgo6k.py":87:29)
#loc82 = loc("/workspace/caption-remover-main/src/stages/inpaint/../../../.torch_compile_cache/q5/cq5jony7ax7qzw2tj6kzel3ykhottcsgfhy5s6vgxrpahbywgo6k.py":87:53)
#loc83 = loc("/workspace/caption-remover-main/src/stages/inpaint/../../../.torch_compile_cache/q5/cq5jony7ax7qzw2tj6kzel3ykhottcsgfhy5s6vgxrpahbywgo6k.py":67:4)
#loc84 = loc(callsite(#loc3 at #loc4))
#loc85 = loc(callsite(#loc6 at #loc7))
#loc86 = loc(callsite(#loc4 at #loc5))
#loc87 = loc(callsite(#loc56 at #loc4))
#loc88 = loc(callsite(#loc57 at #loc4))
#loc89 = loc(callsite(#loc58 at #loc4))
#loc90 = loc(callsite(#loc59 at #loc4))
#loc91 = loc(callsite(#loc60 at #loc4))
#loc92 = loc(callsite(#loc61 at #loc4))
#loc93 = loc(callsite(#loc62 at #loc4))
#loc94 = loc(callsite(#loc63 at #loc4))
#loc95 = loc(callsite(#loc64 at #loc4))
#loc96 = loc(callsite(#loc65 at #loc4))
#loc97 = loc(callsite(#loc66 at #loc4))
#loc98 = loc(callsite(#loc84 at #loc5))
#loc99 = loc(callsite(#loc87 at #loc5))
#loc100 = loc(callsite(#loc88 at #loc5))
#loc101 = loc(callsite(#loc89 at #loc5))
#loc102 = loc(callsite(#loc90 at #loc5))
#loc103 = loc(callsite(#loc91 at #loc5))
#loc104 = loc(callsite(#loc92 at #loc5))
#loc105 = loc(callsite(#loc93 at #loc5))
#loc106 = loc(callsite(#loc94 at #loc5))
#loc107 = loc(callsite(#loc95 at #loc5))
#loc108 = loc(callsite(#loc96 at #loc5))
#loc109 = loc(callsite(#loc97 at #loc5))
