#loc = loc("/workspace/caption-remover-main/src/stages/inpaint/../../../.torch_compile_cache/cn/ccnewn4q2tc46l3ct2lma6u7fqrw7ptegcxlzgidetgydbnaqnhu.py":20:0)
module {
  tt.func public @triton__0d1d2de(%arg0: !tt.ptr<f16, 1> {tt.divisibility = 16 : i32} loc("/workspace/caption-remover-main/src/stages/inpaint/../../../.torch_compile_cache/cn/ccnewn4q2tc46l3ct2lma6u7fqrw7ptegcxlzgidetgydbnaqnhu.py":20:0), %arg1: !tt.ptr<f16, 1> {tt.divisibility = 16 : i32} loc("/workspace/caption-remover-main/src/stages/inpaint/../../../.torch_compile_cache/cn/ccnewn4q2tc46l3ct2lma6u7fqrw7ptegcxlzgidetgydbnaqnhu.py":20:0), %arg2: i32 {tt.divisibility = 16 : i32, tt.max_divisibility = 16 : i32} loc("/workspace/caption-remover-main/src/stages/inpaint/../../../.torch_compile_cache/cn/ccnewn4q2tc46l3ct2lma6u7fqrw7ptegcxlzgidetgydbnaqnhu.py":20:0)) attributes {noinline = false} {
    %cst = arith.constant dense<0.000000e+00> : tensor<256xf32> loc(#loc21)
    %cst_0 = arith.constant dense<1.000000e+00> : tensor<256xf32> loc(#loc22)
    %cst_1 = arith.constant dense<1280> : tensor<256xi32> loc(#loc4)
    %c256_i32 = arith.constant 256 : i32 loc(#loc5)
    %0 = tt.get_program_id x : i32 loc(#loc6)
    %1 = arith.muli %0, %c256_i32 : i32 loc(#loc5)
    %2 = tt.make_range {end = 256 : i32, start = 0 : i32} : tensor<256xi32> loc(#loc7)
    %3 = tt.splat %1 : (i32) -> tensor<256xi32> loc(#loc8)
    %4 = arith.addi %3, %2 : tensor<256xi32> loc(#loc8)
    %5 = arith.cmpi slt, %4, %cst_1 : tensor<256xi32> loc(#loc4)
    %6 = tt.splat %arg0 : (!tt.ptr<f16, 1>) -> tensor<256x!tt.ptr<f16, 1>> loc(#loc9)
    %7 = tt.addptr %6, %4 : tensor<256x!tt.ptr<f16, 1>>, tensor<256xi32> loc(#loc9)
    %8 = tt.load %7, %5 {cache = 1 : i32, evict = 1 : i32, isVolatile = false} : tensor<256xf16> loc(#loc10)
    %9 = arith.extf %8 : tensor<256xf16> to tensor<256xf32> loc(#loc11)
    %10 = tt.splat %arg1 : (!tt.ptr<f16, 1>) -> tensor<256x!tt.ptr<f16, 1>> loc(#loc12)
    %11 = tt.addptr %10, %4 : tensor<256x!tt.ptr<f16, 1>>, tensor<256xi32> loc(#loc12)
    %12 = tt.load %11, %5 {cache = 1 : i32, evict = 1 : i32, isVolatile = false} : tensor<256xf16> loc(#loc13)
    %13 = arith.extf %12 : tensor<256xf16> to tensor<256xf32> loc(#loc14)
    %14 = arith.addf %9, %13 : tensor<256xf32> loc(#loc15)
    %15 = arith.subf %cst, %14 : tensor<256xf32> loc(#loc21)
    %16 = math.exp %15 : tensor<256xf32> loc(#loc23)
    %17 = arith.addf %16, %cst_0 : tensor<256xf32> loc(#loc22)
    %18 = arith.divf %cst_0, %17 : tensor<256xf32> loc(#loc24)
    %19 = arith.mulf %14, %18 : tensor<256xf32> loc(#loc18)
    %20 = arith.truncf %19 : tensor<256xf32> to tensor<256xf16> loc(#loc19)
    tt.store %7, %20, %5 {cache = 1 : i32, evict = 1 : i32} : tensor<256xf16> loc(#loc19)
    tt.return loc(#loc20)
  } loc(#loc)
} loc(#loc)
#loc1 = loc("/opt/venv/lib/python3.10/site-packages/triton/language/standard.py":27:30)
#loc2 = loc("/workspace/caption-remover-main/src/stages/inpaint/../../../.torch_compile_cache/cn/ccnewn4q2tc46l3ct2lma6u7fqrw7ptegcxlzgidetgydbnaqnhu.py":30:22)
#loc3 = loc("/opt/venv/lib/python3.10/site-packages/triton/language/standard.py":27:20)
#loc4 = loc("/workspace/caption-remover-main/src/stages/inpaint/../../../.torch_compile_cache/cn/ccnewn4q2tc46l3ct2lma6u7fqrw7ptegcxlzgidetgydbnaqnhu.py":24:21)
#loc5 = loc("/workspace/caption-remover-main/src/stages/inpaint/../../../.torch_compile_cache/cn/ccnewn4q2tc46l3ct2lma6u7fqrw7ptegcxlzgidetgydbnaqnhu.py":22:33)
#loc6 = loc("/workspace/caption-remover-main/src/stages/inpaint/../../../.torch_compile_cache/cn/ccnewn4q2tc46l3ct2lma6u7fqrw7ptegcxlzgidetgydbnaqnhu.py":22:28)
#loc7 = loc("/workspace/caption-remover-main/src/stages/inpaint/../../../.torch_compile_cache/cn/ccnewn4q2tc46l3ct2lma6u7fqrw7ptegcxlzgidetgydbnaqnhu.py":23:36)
#loc8 = loc("/workspace/caption-remover-main/src/stages/inpaint/../../../.torch_compile_cache/cn/ccnewn4q2tc46l3ct2lma6u7fqrw7ptegcxlzgidetgydbnaqnhu.py":23:23)
#loc9 = loc("/workspace/caption-remover-main/src/stages/inpaint/../../../.torch_compile_cache/cn/ccnewn4q2tc46l3ct2lma6u7fqrw7ptegcxlzgidetgydbnaqnhu.py":26:34)
#loc10 = loc("/workspace/caption-remover-main/src/stages/inpaint/../../../.torch_compile_cache/cn/ccnewn4q2tc46l3ct2lma6u7fqrw7ptegcxlzgidetgydbnaqnhu.py":26:39)
#loc11 = loc("/workspace/caption-remover-main/src/stages/inpaint/../../../.torch_compile_cache/cn/ccnewn4q2tc46l3ct2lma6u7fqrw7ptegcxlzgidetgydbnaqnhu.py":26:49)
#loc12 = loc("/workspace/caption-remover-main/src/stages/inpaint/../../../.torch_compile_cache/cn/ccnewn4q2tc46l3ct2lma6u7fqrw7ptegcxlzgidetgydbnaqnhu.py":27:30)
#loc13 = loc("/workspace/caption-remover-main/src/stages/inpaint/../../../.torch_compile_cache/cn/ccnewn4q2tc46l3ct2lma6u7fqrw7ptegcxlzgidetgydbnaqnhu.py":27:35)
#loc14 = loc("/workspace/caption-remover-main/src/stages/inpaint/../../../.torch_compile_cache/cn/ccnewn4q2tc46l3ct2lma6u7fqrw7ptegcxlzgidetgydbnaqnhu.py":27:45)
#loc15 = loc("/workspace/caption-remover-main/src/stages/inpaint/../../../.torch_compile_cache/cn/ccnewn4q2tc46l3ct2lma6u7fqrw7ptegcxlzgidetgydbnaqnhu.py":28:18)
#loc16 = loc("/opt/venv/lib/python3.10/site-packages/triton/language/standard.py":27:29)
#loc17 = loc("/opt/venv/lib/python3.10/site-packages/triton/language/standard.py":27:16)
#loc18 = loc("/workspace/caption-remover-main/src/stages/inpaint/../../../.torch_compile_cache/cn/ccnewn4q2tc46l3ct2lma6u7fqrw7ptegcxlzgidetgydbnaqnhu.py":31:18)
#loc19 = loc("/workspace/caption-remover-main/src/stages/inpaint/../../../.torch_compile_cache/cn/ccnewn4q2tc46l3ct2lma6u7fqrw7ptegcxlzgidetgydbnaqnhu.py":33:39)
#loc20 = loc("/workspace/caption-remover-main/src/stages/inpaint/../../../.torch_compile_cache/cn/ccnewn4q2tc46l3ct2lma6u7fqrw7ptegcxlzgidetgydbnaqnhu.py":33:4)
#loc21 = loc(callsite(#loc1 at #loc2))
#loc22 = loc(callsite(#loc3 at #loc2))
#loc23 = loc(callsite(#loc16 at #loc2))
#loc24 = loc(callsite(#loc17 at #loc2))
